RL/chapter1/policy.pth (torch, 801781 bytes, 10 tensors)

weight f4 [256, 4]
-0.10412974 0.25959653 0.01421844 -0.39416137 -0.40309933 0.09472545 0.28076065 0.15372285
0.3896226 -0.096018605 -0.12625337 0.44657868 0.03260052 -0.38490847 -0.09682838 0.27387866
-0.19200295 0.4262078 0.119831786 -0.49986795 0.2700818 0.06290523 0.25819084 0.016567044
0.41942784 -0.04464114 -0.19827312 0.13234082 0.2071274 -0.4698129 -0.19878595 0.44280815
0.26304018 -0.034503624 -0.3940095 -0.009155436 0.2096229 0.13519204 -0.19200884 0.43695292
-0.23234785 -0.16572356 -0.21097426 0.39208743 0.40710506 0.31772068 -0.008409613 0.37572584
-0.3834796 0.075259484 -0.11183873 -0.40327984 0.37180266 0.374842 -0.01922896 0.3573144
0.318959 -0.43801302 0.15963636 0.20383918 -0.43539324 -0.09615258 0.37561074 -0.049729038
0.20551184 -0.38306373 0.1815938 0.14532493 0.13153791 0.02255575 -0.3298277 -0.2174236
0.21933827 0.1369402 -0.06438607 -0.08371589 -0.0042505627 0.15415731 -0.14268528 -0.43664935
-0.23311394 0.29841828 0.37807512 -0.3577906 0.49010587 -0.116237834 -0.26079464 0.41727057
-0.48425984 -0.4792449 0.0075159883 0.37990627 -0.07757903 0.036011446 0.3952514 0.39894482
-0.22559556 -0.14334674 0.27177748 0.18694569 0.2994243 -0.085846 0.1334216 0.28416625
-0.04437495 -0.31505847 0.26446053 -0.32071808 -0.122640416 -0.41839308 -0.42775455 -0.4336431
-0.30160832 0.030599792 0.36118793 0.029861046 0.049414936 -0.1761798 -0.41024628 0.3044617
0.2532696 -0.19898142 0.49233755 0.16562727 0.34503216 -0.300432 0.3553571 0.17078803
-0.4156952 0.022516489 0.4834526 0.18023574 0.20437436 -0.3017785 0.08705133 0.11909342
-0.43482253 -0.25763583 -0.010961409 0.20434003 -0.3430645 -0.47930357 0.5038081 -0.008686662
0.2320767 0.47580478 0.21569595 0.032680176 -0.27145982 0.029687954 -0.0337544 0.36674115
0.24608082 -0.33678746 0.45574382 -0.3819451 -0.2811273 0.33914015 -0.15956414 0.07033994
0.34385407 -0.3295448 -0.15679975 -0.01855837 -0.11612708 -0.3616906 0.2311742 0.3532861
0.40252998 0.26740542 -0.18569322 0.27012902 -0.0612812 -0.37423423 -0.46056408 -0.0779249
0.04310839 -0.08264775 -0.36027315 -0.37067598 0.41462657 0.26422283 0.24924633 -0.37663275
0.021265475 8.981611e-05 -0.51800185 -0.2640029 0.26001465 -0.04273539 -0.11324626 -0.48539013
0.11133038 0.2662894 -0.5199751 -0.0073483963 0.38324925 -0.28634638 0.4081615 0.22388214
-0.17416753 -0.00013042438 0.17196114 -0.38343734 -0.12683748 0.3744445 -0.424314 0.040375486
0.46020508 0.38967004 -0.3273204 -0.4629289 0.021369498 -0.2583532 0.21829027 0.40852
0.33274457 -0.43705183 0.27336797 -0.1546629 0.06847801 -0.42573258 0.31683102 -0.2650577
-0.12836069 0.17228208 0.098741576 0.060527723 0.44222078 -0.36067185 -0.04019027 -0.41556826
0.17028609 -0.21619065 -0.44632867 0.061553366 -0.37972456 -0.40218195 -0.31046054 0.11922787
-0.41778177 0.4263257 -0.3869036 -0.30797237 0.31617197 0.086291954 0.03282927 0.114720844
0.39145377 -0.5025449 0.21421109 0.25145695 0.40183598 0.44390675 -0.35191494 -0.4920792
00000000: f941 d5bd d6e9 843e 76f4 683c 85cf c9be
00000010: 0963 cebe 6bff c13d dcbf 8f3e 8669 1d3e
00000020: 9d7c c73e 67a5 c4bd 9048 01be f6a5 e43e
00000030: 1f88 053d b912 c5be f54d c6bd d339 8c3e
00000040: 6c9c 44be e937 da3e 5e6a f53d b1ee ffbe
00000050: 2948 8a3e 75d4 803d 9731 843e 9cb7 873c
00000060: 3fbf d63e a1d9 36bd 1c08 4bbe 5a84 073e
00000070: 3519 543e 518b f0be 8b8e 4bbe c0b7 e23e
00000080: 34ad 863e ac53 0dbd 9dbb c9be af00 16bc
00000090: 63a7 563e c86f 0a3e f79d 44be 4bb8 df3e
000000a0: 98ec 6dbe 70b3 29be a309 58be afbf c83e
000000b0: 1370 d03e 49ac a23e 79c8 09bc 235f c03e
000000c0: 7057 c4be a521 9a3d b40b e5bd b27a cebe
000000d0: eb5c be3e 4aeb bf3e 0d86 9dbc eaf1 b63e
000000e0: 984e a33e 3e43 e0be b777 233e 38bb 503e
000000f0: ddeb debe a5eb c4bd 0d50 c03e adb0 4bbd
00000100: b271 523e ee20 c4be baf3 393e 0fd0 143e
00000110: e0b1 063e d6c6 b83c 2ddf a8be 4ba4 5ebe
00000120: 369a 603e 0d3a 0c3e d8dc 83bd 3d73 abbd
00000130: 4e48 8bbb 6adb 1d3e 171c 12be 8190 dfbe
00000140: 6cb5 6ebe 48ca 983e 1093 c13e 5430 b7be
00000150: 28ef fa3e 1a0e eebd e086 85be 7da4 d53e
00000160: e8f0 f7be 965f f5be ae48 f63b 1383 c23e
00000170: c1e1 9ebd bd80 133d 645e ca3e 7f42 cc3e
00000180: 8602 67be 7dc9 12be 6b26 8b3e b16e 3f3e
00000190: 244e 993e 07d0 afbd ac9f 083e 3d7e 913e
000001a0: 82c2 35bd 584f a1be 5f67 873e 2935 a4be
000001b0: e62a fbbd 9e37 d6be a502 dbbe 7806 debe
000001c0: 686c 9abe 6aac fa3c a0ed b83e 279f f43c
000001d0: 5167 4a3d 7a68 34be cd0b d2be 67e2 9b3e
000001e0: 8eac 813e c9c1 4bbe ab13 fc3e 329a 293e
000001f0: 0ea8 b03e 39d2 99be 5ef1 b53e 0fe3 2e3e
00000200: 00d6 d4be 8074 b83c 1987 f73e b88f 383e
00000210: 8347 513e b682 9abe f847 b23d 40e7 f33d
00000220: 0fa1 debe d8e8 83be 7b97 33bc 833e 513e
00000230: 26a6 afbe 4767 f5be 91f9 003f 8052 0ebc
00000240: 84a5 6d3e af9c f33e 66df 5c3e a6db 053d
00000250: c8fc 8abe 2734 f33c 0e42 0abd 7fc5 bb3e
00000260: 9cfc 7b3e 686f acbe 4157 e93e 4f8e c3be
00000270: ebef 8fbe c7a3 ad3e c864 23be 630e 903d
00000280: a40d b03e 19ba a8be 1d90 20be b907 98bc
00000290: 09d4 edbd 832f b9be eeb8 6c3e eae1 b43e
000002a0: 6918 ce3e 5de9 883e 5d26 3ebe 5a4e 8a3e
000002b0: ff01 7bbd a19b bfbe 0ecf ebbe 1797 9fbd
000002c0: 6c92 303d 3943 a9bd b975 b8be 3ec9 bdbe
000002d0: ef49 d43e 3748 873e 6e3a 7f3e 02d6 c0be
000002e0: ef34 ae3c a85b bc38 c59b 04bf 632b 87be
000002f0: a420 853e 4e0b 2fbd a8ed e7bd 0e85 f8be
00000300: 2f01 e43d 1657 883e 171d 05bf d1ca f0bb
00000310: 3f39 c43e fe9b 92be 8bfa d03e 5c41 653e
00000320: f958 32be 87c2 08b9 9516 303e e651 c4be
00000330: afe1 01be 31b7 bf3e af3f d9be c460 253d
00000340: 00a0 eb3e d582 c73e 8a96 a7be 0405 edbe
00000350: 160f af3c df46 84be 7c87 5f3e 8929 d13e
00000360: 7f5d aa3e 42c5 dfbe e3f6 8b3e f45f 1ebe
00000370: 333e 8c3d 9ff9 d9be ad37 a23e a5b5 87be
00000380: fc70 03be b76a 303e 0639 ca3d ebeb 773d
00000390: c36a e23e fba9 b8be 8d9e 24bd 5dc5 d4be
000003a0: 7a5f 2e3e 1561 5dbe 3185 e4be 621f 7c3d
000003b0: 426b c2be cbea cdbe aff4 9ebe be2d f43d
000003c0: 7ee7 d5be 5d47 da3e 3b18 c6be 8eae 9dbe
000003d0: 4be1 a13e d6b9 b03d fc77 063d c3f2 ea3d
000003e0: a16c c83e c8a6 00bf 275a 5b3e f7be 803e
000003f0: 72bd cd3e bf47 e33e 322e b4be cef1 fbbe

bias f4 [256]
0.19666421 0.389175 0.5085879 -0.26876986 -0.36645243 0.35492402 0.005749239 -0.33177853
-0.43948942 0.10858613 0.32088366 -0.34353074 -0.42436263 -0.42442718 -0.19819623 0.12945437
-0.16380353 0.35098323 -0.23936664 0.31455955 -0.11280082 0.27427942 0.15562586 -0.038972333
0.13103788 -0.37992126 -0.42169064 0.4752448 -0.28870276 -0.052142482 -0.49137133 -0.32875532
-0.3900039 -0.26151204 0.23438878 -0.127842 0.1364954 -0.45440635 -0.41495752 -0.38791323
0.26906168 -0.15145186 -0.045554105 -0.17321843 0.2703274 -0.3399532 0.16368094 0.2280584
0.37583438 0.038462397 0.18366587 0.3359576 0.1671245 -0.31491202 -0.04833391 0.25419635
0.0064680376 0.10318271 -0.23037677 -0.26903352 -0.21087243 0.26658323 -0.42291272 -0.1674635
0.32930356 -0.33012632 -0.25724432 0.030394055 0.22924021 0.5085986 0.39027002 0.29673228
0.43146455 0.0076873093 -0.15420958 0.20513918 0.31693074 -0.06853934 -0.04884927 -0.03445337
0.4432216 -0.047968477 -0.23487289 0.32547906 -0.026783464 -0.004669492 -0.10017412 0.10061438
-0.064595275 -0.04107927 0.29821712 0.43467456 -0.4828418 0.2575724 0.45274603 -0.286099
-0.14461389 0.33341596 -0.40575698 0.42630106 0.22451566 -0.2727242 0.33767268 0.41123652
0.45802417 0.41679248 -0.43258148 0.42443934 0.3283523 -0.12020676 -0.47908455 -0.25491473
0.3874994 0.3794158 0.34684464 -0.31375587 0.45630062 0.01926357 -0.093817845 0.15684442
-0.44541416 0.44101635 0.015794883 0.16689433 0.1094127 -0.4005241 -0.12510239 -0.14969058
-0.41343158 -0.10665679 0.33144468 -0.15667245 0.2582885 0.0016581612 -0.13720432 0.42775714
0.19804484 0.39836407 0.43457428 0.0010956192 0.5079005 -0.18171328 0.17830203 0.27117872
0.22484295 0.02504164 0.29469952 0.21280652 0.41405043 0.09497066 0.3921569 -0.113178946
0.20155808 0.17210513 0.45226407 -0.0036376484 -0.010521049 -0.4117995 -0.4769113 -0.23240137
0.46429312 0.23672341 -0.29669297 -0.22545657 0.029777281 -0.2531354 -0.409065 -0.08297603
-0.008153889 -0.12983215 -0.28948852 0.10871298 0.22068232 0.48756814 0.16700079 0.41244274
0.36297104 -0.05353046 0.0738394 0.40026656 -0.13795955 -0.15833502 -0.45910668 -0.4535945
0.25117213 0.46872157 -0.22059181 0.41612983 0.3073032 0.48870644 0.0613497 -0.48738417
0.0032507458 0.1241638 -0.10402943 -0.108374946 0.42328197 0.038556676 0.2158219 0.33548573
-0.24369644 0.2726875 0.34834978 0.20025386 0.20343581 0.50773937 -0.14113387 -0.3302459
-0.0060363305 -0.4358849 -0.43849236 0.14957154 0.22953472 -0.40151072 -0.36984792 -0.10384608
0.21718027 -0.095779665 -0.26237577 0.25050688 0.026403151 0.46502212 0.34067452 0.3980608
0.25681373 -0.4841123 0.2267014 0.0855273 -0.15261969 0.3750429 0.49599618 0.07639556
-0.2810728 0.113437496 0.0009881507 0.053535596 0.13084286 0.16782452 0.38064507 0.13585407
-0.14101554 -0.07720689 0.3511674 -0.1875022 0.41188997 0.03944488 0.4443642 -0.034614984
-0.12652265 -0.43096572 0.44773754 -0.33995977 -0.1819235 0.36172503 -0.46851742 -0.4507253
00000000: 5862 493e f241 c73e d132 023f 349c 89be
00000010: a79f bbbe 9ab8 b53e 1d64 bc3b e0de a9be
00000020: c204 e1be 6862 de3d dd4a a43e 43e3 afbe
00000030: 0f46 d9be 854e d9be f4f3 4abe b08f 043e
00000040: 1dbc 27be 13b4 b33e 871c 75be f30d a13e
00000050: 1e04 e7bd 5a6e 8c3e 635c 1f3e 74a1 1fbd
00000060: cb2e 063e 0a85 c2be d6e7 d7be 4953 f33e
00000070: d9d0 93be 5b93 55bd 0695 fbbe 9e52 a8be
00000080: 97ae c7be e8e4 85be 9d03 703e 03e9 02be
00000090: 73c5 0b3e f3a7 e8be 5075 d4be 909c c6be
000000a0: 74c2 893e 3216 1bbe f196 3abd 2c60 31be
000000b0: 5a68 8a3e 590e aebe fa9b 273e 2488 693e
000000c0: 5d6d c03e bf8a 1d3d e812 3c3e a202 ac3e
000000d0: af22 2b3e 263c a1be c7f9 45bd 0626 823e
000000e0: d5f1 d33b 7551 d33d e3e7 6bbe c3be 89be
000000f0: f1ee 57be 997d 883e 0488 d8be 8d7b 2bbe
00000100: 7a9a a83e 5106 a9be 87b5 83be f4fc f83c
00000110: f2bd 6a3e 8533 023f 79d1 c73e 4bed 973e
00000120: ece8 dc3e d3e5 fb3b 1ee9 1dbe 0110 523e
00000130: bf44 a23e 5a5e 8cbd 2c16 48bd fa1e 0dbd
00000140: f1ed e23e 987a 44bd 8582 70be 31a5 a63e
00000150: ff68 dbbc 8a02 99bb 1728 cdbd e90e ce3d
00000160: 874a 84bd bd42 28bd eaaf 983e aa8d de3e
00000170: 0a37 f7be 88e0 833e 54ce e73e 917b 92be
00000180: aa15 14be 7fb5 aa3e 61bf cfbe 2244 da3e
00000190: 6fe7 653e 82a2 8bbe 6fe3 ac3e 988d d23e
000001a0: 2582 ea3e d365 d53e 527b ddbe 1d50 d93e
000001b0: cb1d a83e f62e f6bd 924a f5be 2f84 82be
000001c0: 5266 c63e ca42 c23e 9f95 b13e 9ca4 a0be
000001d0: 3ca0 e93e a2ce 9d3c 9223 c0bd d39b 203e
000001e0: 530d e4be e5cc e13e 4564 813c 59e6 2a3e
000001f0: c413 e03d 7f11 cdbe d71a 00be 7d48 19be
00000200: 4ead d3be e06e dabd 1eb3 a93e be6e 20be
00000210: 643e 843e a856 d93a 4a7f 0cbe fc02 db3e
00000220: 44cc 4a3e 60f6 cb3e 8580 de3e e19a 8f3a
00000230: c405 023f 0c13 3abe cf94 363e f0d7 8a3e
00000240: 3b3d 663e 2024 cd3c dbe2 963e f4e9 593e
00000250: 6bfe d33e fa7f c23d cac8 c83e 5dca e7bd
00000260: 3e65 4e3e 543c 303e 288f e73e 9d65 6ebb
00000270: 7a60 2cbc 62d7 d2be b82d f4be a0fa 6dbe
00000280: d4b7 ed3e 9f67 723e 24e8 97be 16de 66be
00000290: 7cef f33c f79a 81be f870 d1be 56ef a9bd
000002a0: e497 05bc b8f2 04be d737 94be e9a4 de3d
000002b0: 8cfa 613e 88a2 f93e 4102 2b3e b22b d33e
000002c0: 57d7 b93e c142 5bbd 1d39 973d bdef cc3e
000002d0: 4545 0dbe 9322 22be 0810 ebbe 8a3d e8be
000002e0: a299 803e 46fc ef3e d2e2 61be f80e d53e
000002f0: d856 9d3e bb37 fa3e d349 7b3d 6b8a f9be
00000300: 770a 553b 9749 fe3d 620d d5bd aff3 ddbd
00000310: 6ab8 d83e 9bed 1d3d 6b00 5d3e c9c4 ab3e
00000320: 8f8b 79be b29d 8b3e e75a b23e 590f 4d3e
00000330: 7a51 503e 35fb 013f 6685 10be fe15 a9be
00000340: 69cc c5bb 4e2c dfbe 1282 e0be 4829 193e
00000350: 260b 6b3e d092 cdbe b55c bdbe 41ad d4bd
00000360: 8164 5e3e 2128 c4bd 1e56 86be 7042 803e
00000370: 6c4b d83c 6117 ee3e e46c ae3e a0ce cb3e
00000380: 177d 833e 91dd f7be 6924 683e f028 af3d
00000390: 5648 1cbe 9f05 c03e 36f3 fd3e 4675 9c3d
000003a0: c6e8 8fbe eb51 e83d d684 813a 2448 5b3d
000003b0: acfb 053e 31da 2b3e e9e3 c23e 541d 0b3e
000003c0: 6166 10be a51e 9ebd 37cc b33e 9400 40be
000003d0: 3ee3 d23e f490 213d b483 e33e 71c8 0dbd
000003e0: 278f 01be 8aa7 dcbe db3d e53e 350f aebe
000003f0: 274a 3abe 0634 b93e 84e1 efbe 77c5 e6be

weight f4 [256, 256]
0.012003661 -0.030535141 0.027131747 -0.037729256 -0.03525366 0.006131261 0.0488242 -0.00012814139
0.011826625 -0.06754057 0.00476987 0.0043896004 -0.007129084 -0.05922203 0.0508361 -0.059537172
0.008412267 0.018585168 0.004731898 0.0284716 -0.056840394 0.015761985 -0.006971241 0.04127223
-0.056313887 0.01117557 0.010765424 -0.024864348 -0.026701193 -0.020394802 0.030813603 0.020996567
0.057027694 0.047418635 -0.049645066 -0.02644847 -0.030577857 -0.03017214 0.05507805 -0.0035584955
0.00874313 -0.05375384 0.029759998 0.06202379 -0.008424166 0.0054289754 -0.028400037 0.027975507
0.050777104 -0.012503499 0.04028796 0.0016415868 -0.012010646 0.03974974 0.06648098 -0.021341993
-0.069880754 0.07559739 0.05893565 0.007403804 0.03690967 -0.0035677995 0.036499996 0.056226794
-0.028932469 0.06214969 0.009196607 0.056721948 0.054217383 -0.005070519 0.013830045 0.034416582
-0.058839828 -0.046397448 -0.04008913 -0.03821039 -0.038299687 -0.024630768 0.023771299 0.034531914
0.06263493 0.018209832 -0.046910588 -0.033779804 -0.050351206 -0.03749475 -0.041407134 -0.04576326
0.051775236 -0.0039595673 -0.013957899 -0.041869253 0.037589952 0.027362306 0.058275815 -0.028455837
-0.04225095 -0.046322007 0.043148845 0.057763737 0.011382991 -0.05222003 0.031447235 -0.062087063
0.0041099894 -0.021597583 0.05974101 -0.034522314 0.041681565 0.05314653 -0.053241324 0.013912999
0.04638605 -0.043122277 -0.00963808 0.021443868 0.023577686 -0.040097535 0.03301663 -0.020231565
0.032160625 0.0123603055 0.037132505 0.017700085 0.03410539 -0.030517124 -0.0010537786 0.00018417524
-0.036345854 -0.02758972 -0.009816644 0.039249156 -0.01758105 0.055895682 0.027614202 -0.027461305
0.031095954 0.04630846 0.05809482 -0.032909017 -0.037107777 0.016314454 0.064404085 0.018087171
0.03645381 0.010396405 0.049214344 0.031048216 0.014423642 -0.03323697 0.030238815 -0.025593482
0.060012896 0.04220517 -0.051716607 0.016141618 -0.05102262 -0.041043613 0.041899506 0.05870179
0.04102252 -0.0011205593 -0.055790722 -0.056146443 0.0051009986 0.03903574 0.052556455 -0.022467228
-0.049314886 0.049572654 0.039474126 -0.0011910208 0.06212886 -0.01723467 0.0081379255 0.056306735
0.046630878 0.023002164 0.057125814 0.035473738 -0.05391284 0.038171332 -0.032866113 -0.0036398734
0.06202622 -0.0391925 -0.027286464 0.039047774 -0.031984728 -0.007200543 -0.04407828 -0.006719104
-0.022200393 0.009442113 0.0062144687 0.044939056 -0.014549858 -0.041467816 0.0032219603 0.03515377
0.051125105 0.057979643 0.0001722959 0.04466833 -0.029064374 -0.010977482 0.025891053 -0.02547533
0.029548729 -0.008361542 0.010755385 0.024082022 -0.049629826 -0.0036935972 0.020833762 -0.027731588
0.0067126667 -0.03484332 -0.0046325433 0.020833176 0.042162243 -0.0038313598 0.040027514 0.042457804
-0.045891676 -0.048575114 0.0071921893 0.00970778 -0.0135660935 -0.018721102 0.048226602 -0.026035808
0.001962818 0.011591999 0.039373558 0.03289809 0.038073003 0.011654114 0.008277571 0.016562806
0.001662245 0.02768141 -0.03555279 0.041407213 0.0026571373 0.039226618 -0.035812516 0.014694282
0.025049618 0.029251583 -0.008276669 -0.05575184 -0.0079017 0.027044056 0.025113976 -0.038326804
00000000: 01ab 443c d524 fabc 6643 de3c fe89 1abd
00000010: 2466 10bd bfe8 c83b e2fb 473d b15d 06b9
00000020: 76c4 413c b652 8abd 924c 9c3b a3d6 8f3b
00000030: 179b e9bb cd92 72bd 8439 503d 40dd 73bd
00000040: 9bd3 093c ec3f 983c 0a0e 9b3b 463d e93c
00000050: 79d1 68bd 471f 813c 026f e4bb 120d 293d
00000060: 64a9 66bd bd19 373c 7661 303c 51b0 cbbc
00000070: 76bc dabc 0013 a7bc cf6c fc3c fe00 ac3c
00000080: df95 693d 0b3a 423d a058 4bbd 76aa d8bc
00000090: 6a7e fabc 902b f7bc 8599 613d a635 69bb
000000a0: 583f 0f3c fd2c 5cbd 3dcb f33c a80c 7e3d
000000b0: 8305 0abc 8ce5 b13b 32a7 e8bc e42c e53c
000000c0: a7fb 4f3d 7adb 4cbc fd04 253d 832a d73a
000000d0: 4dc8 44bc a0d0 223d 2e27 883d 67d5 aebc
000000e0: a41d 8fbd ced2 9a3d 8266 713d 9c9b f23b
000000f0: 982e 173d bed1 69bb 0581 153d 114e 663d
00000100: c903 edbc ac90 7e3d 5ead 163c 4655 683d
00000110: 0c13 5e3d 9926 a6bb 6a97 623c 67f8 0c3d
00000120: 0802 71bd 400b 3ebd 8034 24bd 7f82 1cbd
00000130: 22e0 1cbd 77c6 c9bc 07bc c23c 5671 0d3d
00000140: be46 803d c92c 953c 5125 40bd b15c 0abd
00000150: 113d 4ebd 1894 19bd 879a 29bd 4272 3bbd
00000160: 4512 543d 42bf 81bb acaf 64bc 187f 2bbd
00000170: ecf7 193d ea26 e03c 9fb2 6e3d 371c e9bc
00000180: 550f 2dbd 25bc 3dbd d8bc 303d ab99 6c3d
00000190: ba7f 3a3c ace4 55bd d1ce 003d 014f 7ebd
000001a0: 17ad 863b 6aed b0bc fdb2 743d 4567 0dbd
000001b0: 4aba 2a3d 2db0 593d 9313 5abd 59f3 633c
000001c0: 4cff 3d3d fca0 30bd 0ae9 1dbc 0dab af3c
000001d0: fe25 c13c 503d 24bd 723c 073d abbc a5bc
000001e0: dcba 033d e182 4a3c 4118 183d c5ff 903c
000001f0: 18b2 0b3d 0cff f9bc f11e 8aba 2a1f 4139
00000200: 64df 14bd d603 e2bc fdd5 20bc b9c3 203d
00000210: 2206 90bc dff2 643d 2e37 e23c 88f6 e0bc
00000220: f1bc fe3c f1ad 3d3d d5f4 6d3d 9bcb 06bd
00000230: 53fe 17bd e4a5 853c 4ae6 833d 8c2b 943c
00000240: 9750 153d af55 2a3c fb94 493d d458 fe3c
00000250: 2451 6c3c 7d23 08bd 64b7 f73c 6ca9 d1bc
00000260: 15d0 753d 54df 2c3d cbd4 53bd 6d3b 843c
00000270: 18fd 50bd 591d 28bd d19e 2b3d 4a71 703d
00000280: 3b07 283d bbdf 92ba d084 64bd d0f9 65bd
00000290: 4726 a73b f1e3 1f3d 7045 573d 310d b8bc
000002a0: 68fe 49bd b20c 4b3d 9faf 213d 071c 9cba
000002b0: d57a 7e3d b92f 8dbc ef54 053c e4a1 663d
000002c0: 0500 3f3d 096f bc3c c2fc 693d e94c 113d
000002d0: b6d3 5cbd 8b59 1c3d 9e9e 06bd f18a 6ebb
000002e0: 350f 7e3d 5188 20bd dd87 dfbc 8ff0 1f3d
000002f0: 6b02 03bd 88f2 ebbb 6d8b 34bd ee2b dcbb
00000300: 99dd b5bc 18b3 1a3c bea2 cb3b 0412 383d
00000310: 8762 6ebc 28da 29bd 8627 533b 66fd 0f3d
00000320: 8f68 513d 107c 6d3d 54aa 3439 24f6 363d
00000330: 6918 eebc e6da 33bc 7919 d43c a4b1 d0bc
00000340: 2d10 f23c d9fe 08bc 5b37 303c a947 c53c
00000350: a548 4bbd 4710 72bb 91ab aa3c 5b2d e3bc
00000360: eef5 db3b deb7 0ebd 97cc 97bb 56aa aa3c
00000370: 51b2 2c3d 8d17 7bbb e4f3 233d 3ce8 2d3d
00000380: e9f8 3bbd b3f6 46bd 75ac eb3b 610d 1f3c
00000390: 5244 5ebc ff5c 99bc 4289 453d 0c49 d5bc
000003a0: 9fa2 003b 5eec 3d3c 2b46 213d 26c0 063d
000003b0: 70f2 1b3d e6f0 3e3c a69e 073c b9ae 873c
000003c0: b0df d93a 20c4 e23c cd9f 11bd 9c9a 293d
000003d0: 5e23 2e3b 17ac 203d 25b0 12bd 49c0 703c
000003e0: db34 cd3c 04a1 ef3c de9a 07bc 0b5c 64bd
000003f0: 2276 01bc 7f8b dd3c d3bb cd3c 91fc 1cbd

bias f4 [256]
-0.006613124 0.050710816 0.04435109 -0.030316295 -0.012303568 -0.0311324 -0.051825944 0.016700596
-0.03066419 0.018983549 0.030692063 0.021878032 0.0271125 -0.02281628 0.0029206353 0.028153015
0.005181514 0.048042484 0.009674565 0.065167174 -0.010520135 -0.032574903 0.04622458 0.009146431
0.025873685 -0.027492695 0.034946054 0.025148071 0.05125458 -0.009725199 -0.034855515 0.0016658459
-0.017664548 -0.019010358 -0.004472639 0.0005186764 0.013479571 0.04108127 -0.007932601 0.0015129437
0.022510149 -0.03545709 0.04242967 0.06575827 -0.0123358285 -0.01943333 0.01414208 -0.06131571
-0.0073618037 0.059826672 0.048903767 0.053679414 -0.061507873 -0.015416207 -0.022450594 -0.020898687
0.02303664 0.049873732 -0.034202684 -0.007668019 0.06578606 -0.025363779 0.05382119 0.03314362
0.016880615 0.023111368 -0.018481653 0.007428339 -0.02895696 0.053039428 0.0134263635 0.028891968
0.03847454 -0.0035604262 0.038874615 -0.037731837 -0.008692732 -0.05482396 -0.008591097 -0.01911639
0.06635788 -0.020962575 0.009739868 -0.018499881 0.05839111 0.03237825 0.04415101 0.025779098
0.05641958 0.058790214 0.030378032 0.004755745 0.03815841 0.06414872 0.027683154 0.055612523
-0.010907883 0.04150197 0.049004197 -0.002374525 0.0044375174 -0.024227705 -0.058035802 0.058444932
-0.03920452 0.054869857 -0.030382453 -0.056374006 -0.052428085 -0.0021615946 0.027914777 0.033636853
-0.01969163 0.061660305 0.007849361 0.02007524 0.05235452 -0.016697546 0.03919243 -0.044616703
0.02281535 -0.007952168 -0.026561618 -0.020265965 0.009369149 0.047861546 -0.0004321724 -0.05123505
-0.06175892 -0.004690078 -0.038816422 -0.03648125 0.035719167 0.028788256 0.01798942 0.045380365
0.037015587 0.012334328 -0.037307333 -0.018345123 0.05243727 -0.06100371 -0.057743307 -0.00011692941
-0.03531293 0.036389023 0.0033700056 -0.016685398 -0.04383656 0.015725235 0.0063602496 0.020022135
0.05893633 -0.04661838 -0.042025205 -0.02795868 0.05543744 0.04785328 0.040741645 0.04121273
0.034358613 0.015466758 -0.03854933 0.034522533 -0.024546385 0.011209425 0.068734616 0.033297684
-0.028103797 0.04506788 0.041371346 0.008406362 0.021737823 -0.048213754 -0.011570884 -0.05615721
0.024539614 -0.010186401 0.022936594 -0.039776254 -0.008716833 -0.039180722 -0.0519102 -0.029888343
-0.04462051 0.051542833 -0.029680679 0.054303147 0.020689918 0.03917056 -0.029550962 0.008194471
0.032737575 0.05511686 -0.0458232 -0.028440872 0.038294595 -0.008417517 0.06445479 0.045480855
-0.03296348 -0.061105594 0.043329313 0.03070345 0.041616272 -0.014188268 -0.05184622 0.0373196
0.042821888 0.014965212 -0.04848262 -0.034422945 -0.030717302 0.041673683 -0.021928316 0.018268088
-0.027047958 0.036764886 0.06493536 0.06771157 0.050378427 0.019492341 -0.033218548 -0.025325738
0.0420944 -0.004484336 -0.036545433 0.007131811 -0.007365947 -0.052101914 -0.036903985 0.066496216
-0.001164559 0.01289995 0.050116226 0.059047848 -0.005983868 0.05659441 -0.06105969 0.05948328
0.018249623 -0.037390277 -0.003768456 0.054345742 0.011818737 -0.008173599 -0.03728373 0.042423934
-0.031093782 0.059677083 0.03944384 -0.015829435 0.04102832 -0.040047638 -0.047014136 0.021990545
00000000: e8b2 d8bb 25b6 4f3d 7da9 353d e159 f8bc
00000010: e894 49bc 6009 ffbc 7147 54bd b0cf 883c
00000020: 7833 fbbc 6383 9b3c ec6d fb3c 8f39 b33c
00000030: 091b de3c 35e9 babc 2168 3f3b 27a1 e63c
00000040: b1c9 a93b 32c8 443d 1182 1e3c 5e76 853d
00000050: a55c 2cbc 436d 05bd fc55 3d3d eada 153c
00000060: 0df5 d33c 5c38 e1bc 9823 0f3d 5403 ce3c
00000070: 53f0 513d 7156 1fbc a8c4 0ebd 8358 da3a
00000080: 3eb5 90bc 9cbb 9bbc 378f 92bb c9f7 073a
00000090: 6bd9 5c3c d544 283d bdf7 01bc f74d c63a
000000a0: 3467 b83c 743b 11bd bcca 2d3d 46ac 863d
000000b0: 371c 4abc a632 9fbc 2fb4 673c 2f26 7bbd
000000c0: 493b f1bb d00c 753d 514f 483d f2de 5b3d
000000d0: aeef 7bbd 4294 7cbc 4fea b7bc b933 abbc
000000e0: 56b7 bc3c 6648 4c3d 1d18 0cbd 0144 fbbb
000000f0: d8ba 863d b3c7 cfbc 9c73 5c3d 9bc1 073d
00000100: 3749 8a3c 0d54 bd3c d666 97bc 6d69 f33b
00000110: 2637 edbc df3f 593d 40fa 5b3c d9ae ec3c
00000120: 7b97 1d3d 0a56 69bb fd3a 1f3d b38c 1abd
00000130: f66b 0ebc 178f 60bd acc1 0cbc fa99 9cbc
00000140: a4e6 873d b5b9 abbc f893 1f3c 108d 97bc
00000150: 842b 6f3d 0e9f 043d b1d7 343d b02e d33c
00000160: 3818 673d 02ce 703d 5adb f83c 15d6 9b3b
00000170: fe4b 1c3d 6760 833d c8c7 e23c f5c9 633d
00000180: fab6 32bc f8fd 293d a0b8 483d eb9d 1bbb
00000190: 9868 913b 2e79 c6bc f3b6 6dbd f463 6f3d
000001a0: eb94 20bd 37bf 603d 9fe4 f8bc 6ee8 66bd
000001b0: d5be 56bd 8aa9 0dbb 88ad e43c ccc6 093d
000001c0: 5750 a1bc 848f 7c3d 9b9a 003c d474 a43c
000001d0: b171 563d 4bc9 88bc 3e88 203d 01c0 36bd
000001e0: 42e7 ba3c cf49 02bc c097 d9bc cf04 a6bc
000001f0: 0f81 193c 780a 443d 3395 e2b9 d8db 51bd
00000200: ecf6 7cbd 3aaf 99bb f8fd 1ebd 5d6d 15bd
00000210: 434e 123d 59d5 eb3c 8c5e 933c c3e0 393d
00000220: a89d 173d ec15 4a3c 93cf 18bd 8348 96bc
00000230: 76c8 563d 07df 79bd 3f84 6cbd 0038 f5b8
00000240: 4aa4 10bd a80c 153d 50db 5c3b d1af 88bc
00000250: f78d 33bd 35d2 803c a469 d03b 7605 a43c
00000260: 3967 713d eaf2 3ebd 9f22 2cbd 9a09 e5bc
00000270: 5e12 633d cd01 443d b6e0 263d aece 283d
00000280: 9ebb 0c3d 4968 7d3c e7e5 1dbd 8067 0d3d
00000290: 8015 c9bc bca7 373c bcc4 8c3d 2763 083d
000002a0: ef39 e6bc 1999 383d 0075 293d d6ba 093c
000002b0: 8513 b23c c97b 45bd ce93 3dbc 1a05 66bd
000002c0: 4d07 c93c dde4 26bc 86e5 bb3c 6dec 22bd
000002d0: 0cd1 0ebc f77b 20bd ca9f 54bd 66d8 f4bc
000002e0: ffc3 36bd 941e 533d e524 f3bc fa6c 5e3d
000002f0: e77d a93c 4f71 203d dc14 f2bc 1a42 063c
00000300: d617 063d 37c2 613d 1cb1 3bbd d5fc e8bc
00000310: cbda 1c3d a0e9 09bc df00 843d 224a 3a3d
00000320: b704 07bd dc49 7abd 147a 313d cd85 fb3c
00000330: d375 2a3d e975 68bc b45c 54bd 70dc 183d
00000340: 0166 2f3d a630 753c b695 46bd 13ff 0cbd
00000350: daa2 fbbc 06b2 2a3d 03a3 b3bc f5a6 953c
00000360: ae93 ddbc c796 163d d4fc 843d 5dac 8a3d
00000370: 9c59 4e3d 67ae 9f3c 2c10 08bd ec77 cfbc
00000380: 2d6b 2c3d 56f1 92bb aab0 15bd f8b1 e93b
00000390: 0b5e f1bb d168 55bd a228 17bd 2b2f 883d
000003a0: 1ea4 98ba 505a 533c ac46 4d3d 28dc 713d
000003b0: 5314 c4bb 8acf 673d ba19 7abd bda4 733d
000003c0: 3c80 953c 8c26 19bd 33f8 76bb a499 5e3d
000003d0: 60a3 413c 8fea 05bc d3b6 18bd b8c4 2d3d
000003e0: 63b8 febc f56f 743d dd8f 213d bbac 81bc
000003f0: 500d 283d fe08 24bd e591 40bd 8425 b43c

weight f4 [256, 256]
-0.054176442 -0.0054648444 -0.051492907 0.031860895 -0.0038875043 0.035921067 -0.04302185 -0.056348376
-0.024502948 -0.0075415596 0.0041449964 -0.021581478 -0.030297853 0.015900336 -0.05095046 0.044791214
-0.023485787 0.008925401 -0.024830237 0.06195546 0.015828535 -0.01848945 0.028895259 0.01124455
-0.008164473 -0.011823952 0.050265394 0.034370653 -0.038804494 0.04793164 -0.037293233 0.032189876
-0.05904285 -0.03576386 0.059874766 -0.029741213 -0.018314958 -0.047799937 0.049359307 -0.040826336
0.036984675 0.02054523 -0.012214139 -0.03071136 0.04888645 0.030050829 0.011432305 -0.0021102503
-0.004982412 -0.03867226 -0.04522553 -0.016472422 0.022644095 0.0021268204 -0.058866203 0.06025537
-0.029184349 0.028551154 -0.014059052 -0.055679902 0.022877946 -0.02124478 -0.027467914 0.06079089
-0.041908704 0.0369237 0.007379815 0.024427675 -0.053476103 0.0038001388 0.012408942 -0.006043285
-0.048247844 0.038018152 0.02654139 -0.050107956 0.048861288 -0.058568895 0.02147352 0.02711881
0.0064335614 -0.029701136 -0.024335332 0.022235498 0.046781614 -0.054721028 0.03338491 -0.04329534
-0.00950551 0.038832575 0.017909542 -0.0072052106 -0.030127697 -0.011411607 0.036671057 -0.049395144
-0.058068953 -0.0067923516 -0.048009343 -0.05718197 0.017761976 -0.026910342 -0.052306674 -0.050070353
0.03617514 -0.041769676 -0.05741466 -0.025771737 0.030643277 -0.039360926 -0.049736656 -0.04397296
-0.055600576 -0.06092763 -0.05205039 -0.04048764 -0.023201026 0.018031336 -0.05151736 -0.04284451
-0.05290073 0.007842079 0.038385965 0.04453723 -0.021799572 0.019363746 -0.021641567 0.031951837
-0.04417605 0.021239959 0.03602954 -0.061157174 -0.02613724 -0.039482385 -0.01161883 0.04891946
0.035018243 -0.048367918 0.019585192 0.044249922 -0.05340504 0.049403407 0.017417759 -0.05540265
0.013889618 -0.03812436 0.0032723248 -0.019064315 -0.056573503 0.027927756 -0.051434487 0.04981242
0.010303646 -0.006804101 -0.0072522014 0.04905054 0.015903585 0.005316302 0.042833596 -0.029317565
-0.022593223 -0.017137758 0.016178973 0.0053512454 0.046366587 -0.0067237243 -0.058374837 -0.025239184
0.04207267 -0.049681254 0.019403085 0.015868172 0.025915012 0.03503024 -0.041597664 0.0326415
-0.060307235 0.045657896 0.04863505 0.05910939 -0.06145504 0.032209374 -0.0058921576 -0.019307531
-0.054109164 0.04718197 0.006753348 0.05821033 0.01830139 -0.057669602 0.050824314 0.061079048
-0.013302125 -0.0415247 0.01338245 -0.026415706 -0.00046791136 -0.010936774 0.001850687 -0.055533983
-0.047897898 0.06220282 -0.03525187 -0.022400215 -0.045497485 -0.03412123 0.014935665 0.03590619
-0.0168657 0.0017220825 0.03563541 -0.044918433 -0.013871074 0.011897676 -0.024773583 -0.04996632
0.043620154 0.037607767 -0.01271873 -0.045357637 0.03401553 0.013845496 -0.062168024 0.015353709
-0.0036035106 -0.04813409 -0.056844324 0.0014255717 -0.030431114 0.024628103 0.04507775 0.02306553
0.019696832 0.014041923 0.037574984 0.013178885 0.03725972 0.030024208 -0.05978343 0.048847593
0.04794284 -0.035545476 0.024814077 0.06163685 0.04640957 -0.048665784 0.0544272 -0.028861381
0.019774549 0.05100178 0.0566826 0.03795842 -0.034708895 0.035234004 0.04685369 -0.026961505
00000000: 1ee8 5dbd 7012 b3bb 3aea 52bd 9280 023d
00000010: 80c5 7ebb f821 133d ae37 30bd 8ecd 66bd
00000020: 68ba c8bc 301f f7bb c0d2 873b a4cb b0bc
00000030: 3433 f8bc 6c41 823c 6eb1 50bd fe76 373d
00000040: 4465 c0bc d83b 123c c868 cbbc 02c5 7d3d
00000050: d8aa 813c 3077 97bc c0b5 ec3c 103b 383c
00000060: 48c4 05bc 40b9 41bc 16e3 4d3d 3ec8 0c3d
00000070: 76f1 1ebd f853 443d cac0 18bd 88d9 033d
00000080: ead6 71bd 207d 12bd 3e3f 753d d8a3 f3bc
00000090: 4009 96bc dec9 43bd fc2c 4a3d 8439 27bd
000000a0: 3e7d 173d 784e a83c d01d 48bc 6496 fbbc
000000b0: 283d 483d 282d f63c 904e 3b3c 204c 0abb
000000c0: 8043 a3bb ce66 1ebd 683e 39bd 2cf1 86bc
000000d0: 1c80 b93c 2062 0b3b b01d 71bd 56ce 763d
000000e0: 0414 efbc 1ce4 e93c f057 66bc 9c10 64bd
000000f0: 886a bb3c 8809 aebc 6404 e1bc deff 783d
00000100: 76a8 2bbd 4e3d 173d 60d2 f13b 8c1c c83c
00000110: c209 5bbd c00b 793b e04e 4b3c c006 c6bb
00000120: 889f 45bd ecb8 1b3d 546d d93c 003e 4dbd
00000130: c622 483d f0e5 6fbd 3ce9 af3c 4428 de3c
00000140: a0d0 d23b cc4f f3bc e45a c7bc 3827 b63c
00000150: 149e 3f3d 2823 60bd 9ebe 083d 7456 31bd
00000160: 00bd 1bbc e80e 1f3d 08b7 923c b019 ecbb
00000170: 5cce f6bc c0f7 3abc 6434 163d 9052 4abd
00000180: b6d9 6dbd 6092 debb 72a5 44bd a437 6abd
00000190: 9081 913c 1473 dcbc 863f 56bd 9216 4dbd
000001a0: 622c 143d ae16 2bbd a22b 6bbd 401f d3bc
000001b0: 9c07 fb3c ec38 21bd aab8 4bbd fe1c 34bd
000001c0: 6ebd 63bd 408f 79bd ca32 55bd 5ed6 25bd
000001d0: 1410 bebc 74b6 933c de03 53bd ba7d 2fbd
000001e0: 70ae 58bd 107c 003c 9a3a 1d3d ac6c 363d
000001f0: 0495 b2bc b8a0 9e3c a849 b1bc eedf 023d
00000200: f2f1 34bd 6cff ad3c b693 133d f27f 7abd
00000210: c41d d6bc 48b8 21bd e85c 3ebc c65f 483d
00000220: 4a6f 0f3d 701d 46bd 2071 a03c 683f 353d
00000230: 3ebf 5abd 3a5b 4a3d b0af 8e3c e4ed 62bd
00000240: 4891 633c 4a28 1cbd 8074 563b c42c 9cbc
00000250: 9eb9 67bd c0c8 e43c f8ac 52bd 1c08 4c3d
00000260: a0d0 283c f0f4 debb e0a3 edbb 38e9 483d
00000270: 3c48 823c 6034 ae3b 4872 2f3d 642b f0bc
00000280: 6c15 b9bc 7c64 8cbc c489 843c 8059 af3b
00000290: e4ea 3d3d b052 dcbb 741a 6fbd 68c2 cebc
000002a0: 6454 2c3d 927e 4bbd 38f3 9e3c f8fd 813c
000002b0: b84b d43c de7b 0f3d 5062 2abd 18b3 053d
000002c0: b804 77bd c603 3b3d 8c35 473d b01c 723d
000002d0: 48b8 7bbd faed 033d 0013 c1bb d42a 9ebc
000002e0: 92a1 5dbd e241 413d 304b dd3b f46d 6e3d
000002f0: ccec 953c f636 6cbd 282d 503d 062e 7a3d
00000300: 28f1 59bc ce15 2abd 1042 5b3c c065 d8bc
00000310: 0052 f5b9 2830 33bc c092 f23a 9a77 63bd
00000320: 9630 44bd 62c8 7e3d 4464 10bd a880 b7bc
00000330: 925b 3abd b4c2 0bbd b8b4 743c 5e12 133d
00000340: f029 8abc 80b7 e13a 70f6 113d 64fc 37bd
00000350: 8043 63bc 78ee 423c f8f1 cabc 7ca9 4cbd
00000360: 0cab 323d 9a0a 1a3d 3862 50bc eec8 39bd
00000370: de53 0b3d 38d8 623c e6a3 7ebd 208e 7b3c
00000380: e028 6cbb 4028 45bd 98d5 68bd 40da ba3a
00000390: ac4a f9bc e0c0 c93c 72a3 383d ecf3 bc3c
000003a0: 405b a13c 1810 663c 3ae8 193d 40ec 573c
000003b0: a69d 183d 54f5 f53c 78df 74bd 6a14 483d
000003c0: b65f 443d 2298 11bd e446 cb3c ec76 7c3d
000003d0: f617 3e3d c655 47bd 0eef 5e3d b46e ecbc
000003e0: 3cfe a13c 3ee7 503d 042c 683d 4a7a 1b3d
000003f0: ea2a 0ebd 8851 103d a8e9 3f3d 60de dcbc

bias f4 [256]
0.042146787 -0.025017923 0.013253406 -0.016378103 0.024921313 -0.0058376812 -0.03559609 0.052010622
0.008457674 0.014825433 -0.047972165 -0.03401167 -0.035128746 0.0098955 0.04369921 0.010526958
-0.007773195 -0.029003503 0.056635868 -0.05105185 -0.036459405 0.05075023 -0.005012262 -0.044924967
-0.030345364 0.0011492296 -0.019657427 0.006671775 0.024275318 -0.04245301 0.01697442 0.0550144
0.011671268 0.06435619 -0.050061256 0.04440039 -0.03654059 0.06686952 0.011436567 0.05898723
-0.0057503413 0.05318805 -0.033750564 -0.05327302 -0.020637622 -0.022722155 0.02692399 0.031766526
-0.019084625 -0.02632968 -0.0090534985 -0.028585859 -0.05612479 -0.04342077 -0.020145893 0.06349571
-0.050328735 -0.007282301 0.039453156 0.05376497 -0.038245376 -0.01741295 0.012761723 -0.004515161
0.043549657 0.023266293 0.020728895 0.036580812 -0.050455533 0.013561259 0.05788658 0.043439046
0.052430768 -0.0010168579 0.00071260193 0.041166995 -0.013544579 0.008457099 -0.039780825 -0.010727814
0.05312254 0.028485324 -0.047346737 0.01755226 0.028279886 -0.03693138 0.06565282 -0.03212289
0.03188716 -0.023769118 -0.053927936 0.02973578 -0.051634546 0.029982679 -0.023180373 0.0067793075
-0.035160556 -0.057087414 0.017575596 0.03821489 0.05670323 -0.056333244 0.045061745 -0.062442824
-0.007083949 -0.0014901798 0.0053473357 0.03856574 0.03438916 0.046870876 0.023798773 0.005416886
0.030062288 0.00082653086 -0.034698427 -0.013645633 -0.02042721 0.048609618 -0.029877415 -0.0062198783
-0.004940599 -0.026937677 -0.015673613 -0.02661045 0.06024121 0.030454732 -0.017491577 0.0065547726
0.055640217 -0.013646224 0.048572958 0.016411066 0.03850798 -0.06393979 0.044565365 0.019172281
0.031493068 -0.03503675 0.05918099 -0.0472347 -0.057661105 -0.02860412 -0.032063644 0.013967196
-0.044623084 0.015355629 0.063809805 -0.00849003 -0.057891093 0.018879266 0.0631422 -0.045114253
-0.025263296 -0.022154994 0.025830599 0.022584653 -0.026258659 0.046420135 -0.05251724 0.00354198
0.03663726 0.02401954 -0.001725625 0.052772395 0.025767423 0.06662367 -0.060531884 0.045712236
-0.0048932554 0.049514744 0.003759319 0.039863806 0.056772757 0.0357838 0.0026854037 0.039792895
-0.014427636 0.050143056 0.054316346 -0.032736734 -0.04660494 -0.0572186 0.005725636 0.058393948
-0.002087633 0.044211842 -0.012307653 -0.009027012 0.0115325255 -0.0062473863 -0.048575185 0.06245869
0.042281404 -0.04601018 -0.0111463815 -0.048680432 0.0584774 0.065074556 0.052178375 -0.05254423
-0.013324792 0.06190177 0.016227134 0.015512355 0.035523195 -0.023340214 -0.021766536 0.045767557
-0.037604656 0.034390178 0.0489261 -0.0007940543 -0.054247428 0.022895886 0.015355127 -0.026300339
-0.050800834 -0.052573305 0.0017900799 -0.02244515 -0.05537261 -0.056193776 0.030415198 -0.035989378
-0.035707355 -0.032279316 0.029791474 -0.061119843 -0.044594366 -0.0016301768 -0.02554778 0.062180288
0.029003303 0.035659097 0.02702641 -0.036657 -0.0018904521 0.059528172 0.05401531 -0.012955562
0.0235078 -0.049993053 0.05488419 -0.014676577 -0.043250777 0.020915015 0.06588586 0.06458231
0.058597844 0.037488125 0.031522002 0.043311954 -0.053849038 0.015545531 -0.00016964161 -0.04241352
00000000: 1ca2 2c3d 63f2 ccbc d024 593c 5f2b 86bc
00000010: c827 cc3c 054a bfbb 35cd 11bd 1709 553d
00000020: 0e92 0a3c 5fe6 723c 767e 44bd d24f 0bbd
00000030: 29e3 0fbd bc20 223c f1fd 323d 4379 2c3c
00000040: 49b6 febb c198 edbc 03fb 673d bf1b 51bd
00000050: 7556 15bd 79df 4f3d e73d a4bb 3e03 38bd
00000060: d796 f8bc bfa1 963a 9d08 a1bc e89e da3b
00000070: 08dd c63c 35e3 2dbd f00d 8b3c c856 613d
00000080: d938 3f3c 2ecd 833d 080d 4dbd 2fdd 353d
00000090: 96ab 15bd e3f2 883d 7060 3b3c 989c 713d
000000a0: 5c6d bcbb b6db 593d 083e 0abd cf34 5abd
000000b0: 3b10 a9bc d023 babc b38f dc3c 9e1d 023d
000000c0: 5c57 9cbc 57b1 d7bc 2055 14bc e42c eabc
000000d0: 1ce3 65bd fad9 31bd 0009 a5bc 0a0a 823d
000000e0: 8125 4ebd 5ea0 eebb a299 213d a838 5c3d
000000f0: 2fa7 1cbd 9aa5 8ebc 8c16 513c eaf3 93bb
00000100: 2061 323d f498 be3c a5cf a93c c3d5 153d
00000110: 76aa 4ebd 0b30 5e3c 7a1a 6d3d 24ed 313d
00000120: a5c1 563d 1748 85ba e8cd 3a3a b99e 283d
00000130: 15ea 5dbc a58f 0a3c 38f1 22bd b7c3 2fbc
00000140: 0597 593d 0e5a e93c a7ee 41bd c2c9 8f3c
00000150: 38ab e73c 5c45 17bd fc74 863d 4b93 03bd
00000160: 1c9c 023d 74b7 c2bc 8ae3 5cbd 7398 f33c
00000170: bf7e 53bd 3c9e f53c c4e4 bdbc f424 de3b
00000180: 8404 10bd 7ed4 69bd b2fa 8f3c 3787 1c3d
00000190: a541 683d b0bd 66bd aa92 383d 0cc4 7fbd
000001a0: 7920 e8bb 2352 c3ba b438 af3b 1cf7 1d3d
000001b0: a6db 0c3d adfb 3f3d a5f5 c23c 2280 b13b
000001c0: 3045 f63c 8cab 583a f01f 0ebd ef91 5fbc
000001d0: f756 a7bc e11a 473d 7bc1 f4bc 1fd0 cbbb
000001e0: c0e4 a1bb 67ac dcbc f365 80bc 29fe d9bc
000001f0: 7dbf 763d 347c f93c 7f4a 8fbc 6bc9 d63b
00000200: ffe6 633d 6994 5fbc 70f4 463d 8070 863c
00000210: 8bba 1d3d ddf2 82bd 2c8a 363d 300f 9d3c
00000220: e0fe 003d b282 0fbd c467 723d 2c79 41bd
00000230: 0d2e 6cbd 3053 eabc 2b55 03bd abd6 643c
00000240: b2c6 36bd 2d96 7b3c b7ae 823d c419 0bbc
00000250: 361f 6dbd b1a8 9a3c b350 813d b9c9 38bd
00000260: f9f4 cebc 647e b5bc b19a d33c 7303 b93c
00000270: 661c d7bc 0a23 3e3d 511c 57bd 9020 683b
00000280: f410 163d a0c4 c43c 5e2e e2ba de27 583d
00000290: 3416 d33c fe71 883d 48f0 77bd c13c 3b3d
000002a0: 9a57 a0bb f9cf 4a3d e85e 763b 3b48 233d
000002b0: 8d8a 683d 0992 123d 99fd 2f3b e0fd 223d
000002c0: e461 6cbc ce62 4d3d d17a 5e3d f416 06bd
000002d0: d2e4 3ebd 0d5e 6abd 1e9e bb3b 7e2e 6f3d
000002e0: abd0 08bb 7a17 353d 0aa6 49bc 08e6 13bc
000002f0: ebf2 3c3c e0b6 ccbb c6f6 46bd afd4 7f3d
00000300: 442f 2d3d 2c75 3cbd 509f 36bc 2265 47bd
00000310: 0086 6f3d cf45 853d feb8 553d 9e38 57bd
00000320: 3a50 5abc b68c 7d3d c4ee 843c 8827 7e3c
00000330: c580 113d fa33 bfbc bc4f b2bc c376 3b3d
00000340: 5707 1abd b7dc 0c3d bc66 483d 1528 50ba
00000350: 8d32 5ebd 2790 bb3c 1294 7b3c cf73 d7bc
00000360: 8914 50bd 1b57 57bd 1da1 ea3a e4de b7bc
00000370: 64ce 62bd 722b 66bd 4b29 f93c 9969 13bd
00000380: e041 12bd 5137 04bd 400d f43c cd58 7abd
00000390: 95a8 36bd a8ab d5ba 9449 d1bc c2b0 7e3d
000003a0: 5698 ed3c 460f 123d 7d66 dd3c a725 16bd
000003b0: 0cc9 f7ba d0d3 733d 283f 5d3d 9143 54bc
000003c0: 6e93 c03c 84c5 4cbd 3fce 603d 0776 70bc
000003d0: ba27 31bd f755 ab3c 2aef 863d bb43 843d
000003e0: 4b04 703d 268d 193d 371d 013d e067 313d
000003f0: cf90 5cbd afb2 7e3c d3e1 31b9 cdb9 2dbd

weight f4 [256, 256]
-0.027246296 -0.05269834 0.053878427 -0.022664031 -0.029531129 0.049790822 0.01757393 -0.031990714
-0.04156285 0.012591308 -0.007746715 -0.002773238 -0.040189635 -0.03495441 -0.056900706 0.025208501
-0.05725971 -0.053229924 -0.019457612 -0.0072976137 -0.03862475 0.00042722636 -0.0043880036 -0.037351128
0.049287755 -0.026946368 0.014523426 -0.058175113 -0.013087368 -0.019238459 0.0044770073 0.018862758
0.011389998 0.038591206 0.007923223 0.0023977242 -0.037381113 -0.03538611 -0.022697065 -0.024587937
0.056193057 -0.03047907 -0.019630887 -0.061654255 -0.033130035 0.025799572 -0.008428672 -0.020954872
0.06085551 0.026923226 0.02057025 -0.013792828 0.021776244 -0.013405282 0.057834357 -0.04490543
0.053164177 -0.036479037 -0.020581678 0.04713202 -0.012069095 -0.027905209 0.053260785 -0.015277768
-0.010322183 -0.048471496 -0.01925038 -0.018829534 0.017337367 -0.05790706 -0.002280709 -0.04539639
0.035507683 0.020134771 0.039571382 -0.057557188 -0.062097486 -0.004352514 -0.041549332 0.055357676
0.044302035 -0.00654088 -0.040955115 0.037753437 0.025615834 -0.03658422 -0.0069659995 -0.036170583
0.04737209 -0.020379528 0.004381962 0.0014625598 -0.038734343 0.023379445 0.06135948 0.07222441
0.042518053 0.02570139 0.006416667 0.05757064 0.012663059 0.027190955 -0.022871071 0.030157112
0.025609842 0.016483936 -0.014270709 0.044489816 -0.036895573 0.0040991297 -0.010366387 0.0107922815
0.0009028688 -0.017489642 0.017541483 0.0685292 -0.043999676 -0.011876348 0.023963476 -0.029500632
0.0441399 0.044888686 -0.04276149 0.03813956 -0.017526427 0.06663211 -0.018508634 -0.007900084
0.018260825 -0.011970146 -0.021741694 -0.042908806 0.03334253 0.01340677 -0.0045723543 -0.00453645
0.018079642 0.04644393 0.03888972 0.036389805 0.048750438 0.027881466 0.04232402 0.008609161
0.03195738 -0.014877343 0.06704116 0.023368018 0.058796808 -0.04992218 0.06885074 0.0019943763
-0.04876993 0.0026923195 0.054980453 -0.014341682 -0.020876784 0.060708024 0.053186648 0.036129832
-0.026306633 0.0013917688 0.03415788 -0.053089365 -0.058440894 -0.0124473255 0.0469997 -0.032602288
0.039075453 -0.035921693 0.0125993425 0.0038314117 -0.0051688063 0.054856148 0.050309155 0.060187712
-0.015746366 -0.015535067 -0.013333513 -0.015445644 0.02207867 -0.0234942 0.008364186 -0.030068155
-0.015700592 -0.0072948174 -0.0027937547 0.035044678 -0.025689134 -0.021885857 0.0534444 -0.031335313
0.038654592 -0.044249073 0.049827196 -0.046056 0.019289209 0.0007577606 -0.06181637 -0.009038887
0.0034021481 0.013138023 0.005057797 -0.02762565 0.0016448798 0.0585292 -0.03887038 -0.02878255
-0.054329585 0.05834412 -0.028130796 0.022276906 -0.059240554 0.003422574 0.062080096 -0.06286583
-0.023309771 0.013429839 0.0175664 0.034506362 -0.035214864 -0.020315388 0.042900726 0.05375074
0.02289849 0.02513083 -0.04730872 -0.045070194 0.006416958 -0.04510486 0.014882949 -9.216975e-05
-0.0124366125 -0.028386002 0.021752954 0.0055811373 0.0035104684 0.07373259 -0.059893623 0.06915363
-0.038257875 -0.015911058 -0.010774724 -0.0058178417 0.03747239 0.05892594 -0.04740955 -0.04950153
0.015472341 -0.015174957 0.046689793 -0.062205836 0.02036928 0.048624806 -0.0058438047 -0.0197148
00000000: a033 dfbc 37da 57bd a0af 5c3d eba9 b9bc
00000010: 44eb f1bc 76f1 4b3d 34f7 8f3c b208 03bd
00000020: cf3d 2abd c64b 4e3c 28d8 fdbb 37bf 35bb
00000030: e39d 24bd 5b2c 0fbd b710 69bd 0f82 ce3c
00000040: 2889 6abd 9f07 5abd 9265 9fbc d220 efbb
00000050: fc34 1ebd 5afd df39 3ec9 8fbb 7ffd 18bd
00000060: f5e1 493d a1be dcbc aaf3 6d3c 0749 6ebd
00000070: 666c 56bc f999 9dbc dcb3 923b 1286 9a3c
00000080: 1d9d 3a3c d011 1e3d 68d0 013c 2323 1d3b
00000090: f01c 19bd 07f1 10bd 32ef b9bc a46c c9bc
000000a0: b12a 663d 3eaf f9bc f4d0 a0bc 2c89 7cbd
000000b0: 5cb3 07bd a059 d33c 6a18 0abc 8da9 abbc
000000c0: a143 793d 198e dc3c f182 a83c 50fb 61bc
000000d0: 1864 b23c d4a1 5bbc b8e3 6c3d c2ee 37bd
000000e0: aec2 593d 0b6b 15bd e89a a8bc 810d 413d
000000f0: 74bd 45bc 7799 e4bc fb27 5a3d 9a4f 7abc
00000100: 601e 29bc 0c8a 46bd f9b2 9dbc 6540 9abc
00000110: 1807 8e3c f42f 6dbd f377 15bb 91f1 39bd
00000120: 8170 113d adf1 a43c 9a15 223d 16c1 6bbd
00000130: ef59 7ebd 899f 8ebb a22f 2abd bbbe 623d
00000140: 0d76 353d e154 d6bb 8dc0 27bd 59a3 1a3d
00000150: 4cd8 d13c 56d9 15bd 0a43 e4bb 9b27 14bd
00000160: 3d09 423d f8f2 a6bc 9096 8f3b 5db3 bf3a
00000170: e7a7 1ebd 4086 bf3c 1454 7b3d 64ea 933d
00000180: 6927 2e3d b98b d23c e742 d23b 31cf 6b3d
00000190: b878 4f3c 91bf de3c 1d5c bbbc 0c0c f73c
000001a0: bbcb d13c 5209 873c b1cf 69bc f43a 363d
000001b0: d01f 17bd fe51 863b c7d7 29bc 1cd2 303c
000001c0: 80ae 6c3a 7046 8fbc 28b3 8f3c 0a59 8c3d
000001d0: 0139 34bd 0495 42bc 0d4f c43c 4fab f1bc
000001e0: 0acc 343d 33dd 373d ac26 2fbd 3a38 1c3d
000001f0: 9593 8fbc 6a76 883d 6b9f 97bc 5b6f 01bc
00000200: ba97 953c 6e1e 44bc a31b b2bc 25c1 2fbd
00000210: 2d92 083d 12a8 5b3c b0d3 95bb 80a6 94bb
00000220: c21b 943c fe3b 3e3d d44a 1f3d 7a0d 153d
00000230: 8aae 473d ac67 e43c f45b 2d3d 700d 0d3c
00000240: bee5 023d 19c0 73bc e04c 893d 496e bf3c
00000250: ecd4 703d 337b 4cbd 9e01 8d3d 15b4 023b
00000260: fac2 47bd a071 303b 2f33 613d 60f9 6abc
00000270: ca05 abbc faa8 783d 3eda 593d e0fc 133d
00000280: 0281 d7bc 036c b63a 22e9 0b3d 3c74 59bd
00000290: b85f 6fbd deef 4bbc c282 403d fa89 05bd
000002a0: 950d 203d a022 13bd 796d 4e3c 6c18 7b3b
000002b0: 175f a9bb d7b0 603d f910 4e3d 6487 763d
000002c0: 86fe 80bc cb86 7ebc cf74 5abc ba0f 7dbc
000002d0: 54de b43c e976 c0bc f009 093c 7e51 f6bc
000002e0: 879e 80bc 5d09 efbb 6d17 37bb 028b 0f3d
000002f0: 0572 d2bc f849 b3bc 84e8 5a3d 7559 00bd
00000300: 4754 1e3d 843e 35bd 9a17 4c3d 37a5 3cbd
00000310: 6704 9e3c 74a4 463a 2933 7dbd d717 14bc
00000320: 93f6 5e3b dd40 573c e0bb a53b 304f e2bc
00000330: 0299 d73a 50bc 6f3d 8c36 1fbd 62c9 ebbc
00000340: b388 5ebd 3efa 6e3d 8e72 e6bc 0f7e b63c
00000350: 39a6 72bd 434d 603b b347 7e3d cdbf 80bd
00000360: 22f4 bebc d408 5c3c 69e7 8f3c 8b56 0d3d
00000370: 763d 10bd 756c a6bc acb8 2f3d bc29 5c3d
00000380: 9d95 bb3c 2cdf cd3c cac6 41bd 869b 38bd
00000390: 5845 d23b e0bf 38bd 9dd7 733c 424b c1b8
000003a0: efc2 4bbc c389 e8bc 4033 b23c f9e1 b63b
000003b0: e30f 663b 1d01 973d 0453 75bd 6ba0 8d3d
000003c0: 4ab4 1cbd e857 82bc 7888 30bc 98a3 bebb
000003d0: a67c 193d 545c 713d 8430 42bd 1ec2 4abd
000003e0: b47f 7d3c 62a0 78bc cc3d 3f3d 8ccb 7ebd
000003f0: 7add a63c ce2a 473d 637d bfbb ef80 a1bc
