RL/chapter3/policy.pth (torch, 801781 bytes, 10 tensors)

weight f4 [256, 4]
0	0xbd8081c8	-0.06274754
1	0x3e2a4338	0.16627204
2	0xbed7ebae	-0.42171997
3	0xbcc060c0	-0.023483634
4	0x3e9a877b	0.30181488
5	0x3dffb8f0	0.12486446
6	0xbe4121e4	-0.18860584
7	0x3dba9818	0.09111041
8	0xbeb3fb02	-0.3515244
9	0xbe69208f	-0.22766326
10	0xbeeefebf	-0.4667873
11	0x3ec527b3	0.3850685
12	0x3d138e7e	0.036024563
13	0x3ea8981b	0.32928547
14	0xbe1b37ad	-0.15157957
15	0x3e470b40	0.19437885
16	0xbea95cac	-0.33078516
17	0xbeb5c6c3	-0.35503206
18	0x3ed3a90c	0.4133991
19	0xbef0a66b	-0.47001967
20	0xbd0ed190	-0.034867823
21	0xbebb12ba	-0.36537725
22	0x3eef5354	0.46743262
23	0xbef2f3e6	-0.47451705
24	0xbdacc30a	-0.08435638
25	0xbe408f17	-0.18804584
26	0xbee37d3b	-0.4443148
27	0x3efe0f34	0.49620974
28	0x3cb1227a	0.021622885
29	0x3e706918	0.2347759
30	0x3e6ce85e	0.23135516
31	0x3c84bcf2	0.016203377
32	0xbe1524bc	-0.14564794
33	0x3df77c78	0.120842874
34	0x3be86f00	0.0070933104
35	0x3dfe6898	0.124222934
36	0xbeaa9100	-0.3331375
37	0xbe058fc0	-0.13043118
38	0xbee8c2a6	-0.45461005
39	0xbee657de	-0.44988912
40	0xbe10f5fc	-0.14156336
41	0x3d66996c	0.05629866
42	0x3e82660f	0.2546849
43	0x3e43d509	0.19124235
44	0xbed06057	-0.406985
45	0xbe331a20	-0.17490435
46	0xbd833427	-0.06406432
47	0xbe113923	-0.14181952
48	0xbeb385bc	-0.3506297
49	0x3ec1a007	0.37817404
50	0xbeb0ea97	-0.34553978
51	0x3e91c48c	0.28470266
52	0x3ef4d4ea	0.4781869
53	0xbebeffe3	-0.373046
54	0x3e0dba77	0.13840662
55	0xbe856e39	-0.26060656
56	0xbce2d7e0	-0.027690828
57	0xbe932ace	-0.28743595
58	0x3debb908	0.11509901
59	0xbce47ce0	-0.027891576
60	0xbec9d11f	-0.3941736
61	0xbd713c14	-0.058895186
62	0x3e7f74d3	0.24946909
63	0xbe42ff6f	-0.19042753
64	0xbdc997c6	-0.098434016
65	0xbeb2c300	-0.34914398
66	0xbe4ae509	-0.19813932
67	0x3e64f5a1	0.22359325
68	0xbec6227f	-0.38698193
69	0xbe26fa75	-0.1630648
70	0x3eb393ae	0.35073608
71	0xbec054f6	-0.3756482
72	0xbe5aa524	-0.21352059
73	0xbeeac278	-0.45851493
74	0xbeb3ec38	-0.35141158
75	0x3eaa38aa	0.33246356
76	0xbe3e582c	-0.18588322
77	0xbe08e4d4	-0.13368541
78	0xbe11b10b	-0.14227693
79	0xbeb7446b	-0.35794386
80	0x3ec3801d	0.3818368
81	0xbe5b2f7c	-0.21404833
82	0x3e736d49	0.23772158
83	0x3ec7b2ae	0.3900351
84	0x3d721d70	0.059110105
85	0x3ed3547e	0.412754
86	0x3e8241cc	0.25440824
87	0xbebeb9e2	-0.37251192
88	0xbeea9767	-0.45818636
89	0xbd45f2fd	-0.048327435
90	0x3ea483a5	0.32131687
91	0xbe80a576	-0.25126237
92	0x3e95703e	0.29187196
93	0x3e84dc44	0.259493
94	0x3e2f57c8	0.1712333
95	0xbeb4ef9c	-0.35339057
96	0xbeb52eb4	-0.35387194
97	0x3dc8170e	0.09770022
98	0x3d10fd1c	0.035397634
99	0xbe126be7	-0.14298974
100	0xbeea1296	-0.45717305
101	0xbe95eef6	-0.29283875
102	0xbecd7352	-0.40127045
103	0xbe329ac9	-0.17441858
104	0xbe113c01	-0.14183046
105	0x3ee4b2c7	0.44667646
106	0x3c0b955a	0.008519495
107	0x3c8472e0	0.016168058
108	0x3ea385f4	0.31938136
109	0xbebafbc0	-0.36520195
110	0x3d6edd30	0.05831641
111	0xbcc04aa0	-0.023473084
112	0x3e55c55c	0.20876068
113	0xbe7a6b18	-0.24454916
114	0xbeef76f6	-0.46770447
115	0xbeddff5c	-0.43358886
116	0xbee59677	-0.44841358
117	0x3dbb5eb2	0.09148921
118	0x3e449607	0.19197856
119	0x3d1ae9ae	0.03782051
120	0x3d70979d	0.05873834
121	0xbeed506a	-0.46350414
122	0x3e50bb61	0.2038398
123	0x3e7aeba5	0.24503954
124	0xbedd887b	-0.4326819
125	0xbe10a08b	-0.14123742
126	0xbeb2618e	-0.34840053
127	0xbe9fe292	-0.31227547
128	0xbee3e18d	-0.4450802
129	0x3e839452	0.25699097
130	0xbe507a50	-0.20359159
131	0x3e9cb1eb	0.3060449
132	0x3da5d8d1	0.08097995
133	0x3ee61d51	0.44944242
134	0xbed0b097	-0.40759727
135	0x3dd3cf9a	0.10342331
136	0xbead0dfc	-0.33799732
137	0x3e2a24a4	0.1661554
138	0xbebdf4fa	-0.37100965
139	0xbe87e3aa	-0.2654088
140	0x3e2cfa4b	0.16892354
141	0xbe98c923	-0.29840955
142	0x3ef7ec96	0.48422688
143	0x3da6202e	0.081116065
144	0x3e9d8b77	0.30770466
145	0x3e4ca698	0.19985425
146	0x3e2e4b10	0.17020822
147	0xbd2965d1	-0.041356865
148	0x3dfa1c88	0.12212473
149	0xbd7dfb6b	-0.06200735
150	0xbd48b030	-0.04899615
151	0xbecf93e7	-0.40542528
152	0x3c58b8b0	0.013227627
153	0x3e50d793	0.20394735
154	0x3ec7430e	0.38918346
155	0x3e84cb83	0.25936517
156	0x3eefe0bb	0.46851143
157	0x3eb48dfc	0.35264575
158	0xbeeabd36	-0.4584748
159	0xbe8bc474	-0.2729832
160	0xbe6a1474	-0.22859365
161	0x3e5b521c	0.21418041
162	0x3ee901a0	0.45509052
163	0xbe2a6968	-0.16641772
164	0x3e2b1e34	0.1671074
165	0xbe950a4c	-0.29109418
166	0xbe547868	-0.20749056
167	0x3ef96116	0.48706883
168	0xbe5f807a	-0.21826354
169	0xbc0f051b	-0.008729245
170	0xbeac9c91	-0.337132
171	0x3eadee46	0.3397085
172	0x3ec12b80	0.377285
173	0xbee727a4	-0.4514743
174	0x3ef0fc38	0.47067428
175	0x3eac30be	0.33630937
176	0xbec3f8cd	-0.38275757
177	0xbef87673	-0.4852787
178	0xbdc918c9	-0.098191805
179	0xbeea6de8	-0.45786977
180	0x3eda1705	0.42595688
181	0x3ea71aff	0.32637784
182	0xbe0b7455	-0.13618596
183	0xbe3546e6	-0.17702827
184	0x3d8ea5d7	0.06965225
185	0xbea3ee8e	-0.3201794
186	0xbe355aea	-0.17710462
187	0xbede6f1e	-0.4344415
188	0x3dc9bd30	0.09850538
189	0xbe91ccf0	-0.28476667
190	0x3ebe9bbe	0.37228197
191	0xbeba4b98	-0.36385798
192	0xbe6f359c	-0.23360294
193	0xbdb16340	-0.086615086
194	0x3d5a3ff0	0.05328363
195	0x3b93ec00	0.0045142174
196	0xbefcb920	-0.4935999
197	0xbef133e2	-0.47109896
198	0x3ea4f40e	0.3221745
199	0x3ea8b302	0.32949072
200	0x3eb6e544	0.3572179
201	0x3c683040	0.01417166
202	0xbe5b646c	-0.21425027
203	0x3ec39a94	0.3820387
204	0x3e8e9712	0.27849633
205	0xbe9d4d56	-0.30723065
206	0x3e6e14d4	0.23250133
207	0xbd618360	-0.05505693
208	0xbe243743	-0.16036706
209	0xbe629cdc	-0.2213015
210	0x3e8cb7ed	0.27484074
211	0x3e256d69	0.16155018
212	0xbcc7c8c2	-0.024387721
213	0xbed13b26	-0.4086544
214	0x3e3ebff0	0.18627906
215	0xbe57bc16	-0.21067843
216	0xbefa46b5	-0.4888207
217	0xbec6d6f1	-0.38835862
218	0x3f034305	0.5127414
219	0xbd960a26	-0.073261544
220	0xbeaae246	-0.33375758
221	0x3e4d0c0c	0.20024127
222	0x3e9c1154	0.3048197
223	0xbe33f230	-0.17572856
224	0x3e9c3d14	0.3051535
225	0xbe081c70	-0.13292098
226	0xbeceb97e	-0.40375894
227	0xbd966888	-0.073441565
228	0x3d122c09	0.035686526
229	0x3ee00513	0.4375387
230	0xbdd2ca14	-0.102924496
231	0xbe55657d	-0.20839496
232	0x3efc1581	0.49235156
233	0xbee4db45	-0.4469854
234	0xbf01ea3e	-0.5074805
235	0xbd2bf4d1	-0.041981522
236	0xbe058d9f	-0.13042305
237	0x3dce1ce0	0.10064101
238	0x3d034337	0.032046523
239	0x3c7ac4b6	0.015305689
240	0xbedd4156	-0.4321391
241	0x3ea0a53a	0.31376058
242	0xbd037660	-0.032095313
243	0x3eb20622	0.34770304
244	0x3ef1f890	0.4725995
245	0xbd49cc2c	-0.04926698
246	0xbea126fc	-0.31475055
247	0x3e59b16f	0.21259092
248	0x3ef1d6d5	0.47234216
249	0xbec872a9	-0.3914998
250	0xbe892828	-0.2678845
251	0x3eb0f24b	0.34559855
252	0xbed1b04a	-0.4095481
253	0x3e8ae022	0.27124125
254	0x3da5f2d0	0.081029534
255	0xbc746940	-0.014917672

bias f4 [256]
0	0xbd911eb8	-0.07085937
1	0x3db1360d	0.086528875
2	0x3ea5f1f2	0.32411152
3	0x3e314c44	0.1731425
4	0x3e53ed51	0.20695998
5	0xbd8b6ed8	-0.06808251
6	0xbcf74d10	-0.030188113
7	0x3ed7c860	0.42145061
8	0xbedbec52	-0.42953736
9	0xbef7a65c	-0.4836911
10	0x3e412867	0.18863069
11	0x3dc206af	0.09473931
12	0x3eff6eda	0.4988926
13	0x3e1db0de	0.153995
14	0xbedc0eaa	-0.42979938
15	0x3eb29065	0.3487579
16	0x3e455594	0.19270927
17	0x3e25cbc0	0.16191006
18	0xbe859a00	-0.26094055
19	0x3e8e2f4a	0.27770454
20	0x3e2a5406	0.16633615
21	0xbd8eaa30	-0.069660544
22	0x3ef62a8c	0.48079336
23	0xbeee0e38	-0.46495223
24	0x3d22e1ac	0.039766
25	0x3e662392	0.22474506
26	0x3ec2401d	0.3793954
27	0xbdb7f610	-0.089824796
28	0xbe23e49c	-0.16005176
29	0x3db3aed9	0.08773584
30	0x3e353772	0.17696932
31	0x3ede14de	0.43375295
32	0x3e94b6d5	0.2904574
33	0x3e079a71	0.13242508
34	0xbe266fe0	-0.16253614
35	0x3e0c4b50	0.13700604
36	0x3e96795a	0.2938946
37	0x3eb4f841	0.35345653
38	0x3d848d0f	0.06472217
39	0x3e15718a	0.14594093
40	0xbebf30c8	-0.37341905
41	0xbef317f4	-0.47479212
42	0x3ea01987	0.31269476
43	0xbe3a2e70	-0.18181777
44	0x3eb97510	0.36222124
45	0x3d959621	0.073040254
46	0x3e6bfe39	0.23046197
47	0xbe3d3810	-0.18478417
48	0xbe555ff0	-0.20837379
49	0xbee33cba	-0.44382268
50	0xbef58fde	-0.47961324
51	0xbec49d5e	-0.38401312
52	0x3e8de2fe	0.27712244
53	0x3d8d312b	0.06894144
54	0x3e93e10d	0.28882638
55	0xbe56f720	-0.20992708
56	0xbebb7af4	-0.36617243
57	0x3ec1de50	0.37864923
58	0x3df47936	0.11937182
59	0x3ebd7d02	0.37009436
60	0xbe6efbe4	-0.23338276
61	0xbc818f44	-0.015815385
62	0x3ecb1403	0.39663705
63	0xbe550708	-0.20803463
64	0xbe076fdc	-0.13226265
65	0x3dc1df5c	0.094664305
66	0x3e2bf5e6	0.16793022
67	0xbd540450	-0.051761925
68	0x3ed0fa82	0.40816122
69	0x3e5b0083	0.21386914
70	0xbc6993f2	-0.014256464
71	0x3e281def	0.16417669
72	0x3ec8d96c	0.3922838
73	0xbd89d030	-0.06729162
74	0xbdf74218	-0.12073153
75	0xbeaf8d0c	-0.34287298
76	0xbed5267e	-0.4163093
77	0x3e8b2e29	0.27183655
78	0x3e85704c	0.26062238
79	0x3cddba7d	0.027066464
80	0x3e88cceb	0.2671884
81	0x3db02cfb	0.08602329
82	0x3e82b5ba	0.2552927
83	0x3ef10c60	0.47079754
84	0xbebfb99c	-0.37446296
85	0x3ec22d3e	0.37925142
86	0x3e31298a	0.17301002
87	0x3e3e05c0	0.18556881
88	0xbc8c2fe6	-0.017112684
89	0xbed0329e	-0.40663618
90	0xbee46c3e	-0.44613832
91	0x3eabfee2	0.33592898
92	0x3d63bb15	0.055598337
93	0xbe12ffa4	-0.14355332
94	0x3e98aa3c	0.2981738
95	0xbe0b6dac	-0.13616055
96	0xbe0d5508	-0.13801968
97	0x3d1d7f70	0.038451612
98	0x3efe030e	0.49611706
99	0x3e512a73	0.2042635
100	0x3ea76678	0.32695365
101	0xbe25223c	-0.1612634
102	0xbef0ca00	-0.47029114
103	0xbea8be6e	-0.32957786
104	0x3e84255f	0.25809762
105	0xbe964daa	-0.29356128
106	0xbdcf26e8	-0.10114843
107	0x3ee36a33	0.4441696
108	0xbeaf05ba	-0.34184057
109	0xbe901e14	-0.28147948
110	0x3d8f6325	0.07001332
111	0x3e7aea46	0.2450343
112	0xbec01c96	-0.3752181
113	0x3e2c39b9	0.16818894
114	0xbedc363a	-0.43010122
115	0x3d59527a	0.05305717
116	0x3dd4932c	0.10379633
117	0x3ed573aa	0.41689807
118	0xbeffedf2	-0.49986225
119	0xbee7349a	-0.4515732
120	0xbe63fd5c	-0.22264618
121	0x3e0a1558	0.13484704
122	0xbef183cc	-0.47170866
123	0x3dec55f4	0.11539832
124	0xbec03590	-0.37540865
125	0x3dd3af76	0.10336201
126	0xbe48b688	-0.1960088
127	0xbd07b8a6	-0.03313508
128	0x3e5b2b4f	0.2140324
129	0x3e9b5c08	0.30343652
130	0x3e575f99	0.21032561
131	0xbe95c1f8	-0.2924955
132	0x3edfa6a9	0.4368184
133	0x3ef8d954	0.48603308
134	0xbd824dc0	-0.06362486
135	0x3e89fa7d	0.2694892
136	0xbe7369e8	-0.23770869
137	0x3e1afa77	0.15134607
138	0x3e9c8f4a	0.3057807
139	0xbe2df55c	-0.16988128
140	0xbec70424	-0.38870347
141	0x3e0b1f0a	0.13586059
142	0xbeedbfba	-0.46435338
143	0x3ef607a6	0.4805271
144	0x3ef241ab	0.47315726
145	0xbeba8af6	-0.36434144
146	0xbe86aa28	-0.26301694
147	0x3e8d2f19	0.27574995
148	0xbe1b7df0	-0.1518476
149	0xbd9e9b40	-0.07744455
150	0xbd961528	-0.07328254
151	0xbd6cdc08	-0.057827026
152	0x3ef3e6e8	0.47637105
153	0xbeea0f2c	-0.457147
154	0x3ebb3b9f	0.36568925
155	0xbeed5782	-0.46355826
156	0xbe5862e8	-0.2113148
157	0x3ef55d18	0.47922587
158	0x3ea8afce	0.32946628
159	0x3e55c14b	0.20874517
160	0xbddc4150	-0.10754645
161	0xbe6b322c	-0.22968358
162	0x3ed5f8cd	0.41791382
163	0x3e71b52e	0.23604271
164	0x3b7e828b	0.0038835134
165	0xbca934a2	-0.02065498
166	0xbcd3bc00	-0.025846481
167	0x3e9bd51f	0.30436036
168	0xbdc96b50	-0.09834921
169	0xbe8dd90a	-0.2770465
170	0xbe05d00c	-0.13067645
171	0x3ec1d7df	0.3786001
172	0xbee5c746	-0.44878596
173	0xbea432b4	-0.32069933
174	0x3e9d7892	0.3075605
175	0xbe0a700c	-0.13519305
176	0xbe8db2ae	-0.27675384
177	0x3e8b9e4b	0.27269205
178	0x3efcba94	0.49361098
179	0xbde32050	-0.110901475
180	0xbd2c7550	-0.042104065
181	0x3ae2b9d5	0.0017297814
182	0x3ea5ea49	0.32405308
183	0x3d798259	0.060915325
184	0x3dc04896	0.09388845
185	0x3e67a232	0.22620466
186	0xbe14f710	-0.14547372
187	0x3e9cf099	0.3065231
188	0xbe8b0272	-0.27150303
189	0x3e609e2a	0.21935335
190	0x3eb56a10	0.35432482
191	0x3e5932c6	0.21210775
192	0xbe9d6dec	-0.30747926
193	0x3e8c4803	0.2739869
194	0xbcfa6730	-0.030566782
195	0xbe5afd54	-0.213857
196	0x3eeeb400	0.46621704
197	0xbef57092	-0.47937447
198	0xbe8d7dc2	-0.27635008
199	0x3e826c4d	0.25473252
200	0xbeccb968	-0.39985204
201	0x3e427789	0.18990912
202	0xbeb62014	-0.3557135
203	0x3ea7e41d	0.32791224
204	0x3ee97092	0.45593697
205	0x3efe2eed	0.49645177
206	0xbd9e1a68	-0.0771988
207	0x3e18d1bf	0.14923762
208	0xbe6097e4	-0.21932942
209	0x3e6c83b0	0.2309711
210	0x3ec15f80	0.37768173
211	0x3e85b07b	0.26111206
212	0x3d5ce1bb	0.05392621
213	0xbe731614	-0.23738891
214	0xbefb5b7e	-0.4909324
215	0xbe8e5ea6	-0.27806586
216	0x3c988303	0.018617159
217	0x3ed4d698	0.41569972
218	0xbe8c602c	-0.27417123
219	0x3cd66375	0.026170472
220	0x3ea8751a	0.3290184
221	0x3e745dc4	0.23863894
222	0xbe73380c	-0.23751849
223	0x3ed864f6	0.42264527
224	0xbe737464	-0.23774868
225	0xbe6bb2b8	-0.23017395
226	0x3ec4c455	0.3843104
227	0x3ee62e27	0.44957086
228	0xbd33c130	-0.04388541
229	0x3ec10a30	0.37703085
230	0x3ee22d01	0.4417496
231	0x3c7b9bd4	0.015356977
232	0xbdcc8290	-0.0998584
233	0xbe3922f4	-0.1807974
234	0xbdefc440	-0.117073536
235	0xbe4e5300	-0.2014885
236	0x3eb56b62	0.3543349
237	0xbe931bd8	-0.2873218
238	0xbe8798de	-0.26483816
239	0x3ecce566	0.40018767
240	0xbd4f3840	-0.050590754
241	0x3d6b4cdd	0.05744635
242	0xbd088402	-0.033329017
243	0x3e567546	0.20943174
244	0x3ee77496	0.45206136
245	0x3ecd0fc8	0.40051103
246	0x3efd9f17	0.49535438
247	0xbef1b872	-0.47211033
248	0x3beef3c7	0.007292244
249	0x3ec32452	0.38113648
250	0x3c48458a	0.012223611
251	0xbd761f40	-0.060088396
252	0x3cff95cf	0.031199364
253	0xbdf5ff50	-0.120115876
254	0xbeda9202	-0.4268952
255	0xbe96ff96	-0.29491872

weight f4 [256, 256]
0	0x3cf692d0	0.030099303
1	0xbce9e560	-0.028551757
2	0xbb1c8040	-0.0023880154
3	0x3d2f9952	0.042870827
4	0x3d3c6870	0.045998037
5	0x3cbbe344	0.022935517
6	0xbd22304e	-0.03959685
7	0xbcd9ae4c	-0.026572369
8	0xbb7a4f20	-0.0038194135
9	0x3d194178	0.03741595
10	0x3d4fe01a	0.05075083
11	0xbcc2b5d0	-0.023768336
12	0x3d36474a	0.04450158
13	0x3c0b6478	0.00850784
14	0xbc9aaba8	-0.01888068
15	0x3cdd48ec	0.02701231
16	0x3d7af9dc	0.06127344
17	0x3d0b5ce4	0.034024134
18	0x3a9beb40	0.0011895671
19	0x3d0c2efc	0.034224495
20	0xbd43d698	-0.047812074
21	0x3d3e6dfc	0.046491608
22	0xbd53113a	-0.0515301
23	0x3cb056b4	0.021525718
24	0x3cd42aac	0.025899254
25	0xbcb2ca78	-0.02182506
26	0x3cb7c720	0.022433817
27	0xbd17870e	-0.036994033
28	0x3d1dc474	0.03851743
29	0x3d568bbe	0.052379362
30	0x3d5f9df8	0.05459401
31	0xbcff469c	-0.031161599
32	0xbd6bab28	-0.057536274
33	0x3d03fce4	0.032223597
34	0xbd799ae6	-0.06093874
35	0xbc802eec	-0.015647374
36	0x3d742dee	0.059614114
37	0xbcfcaedc	-0.030845098
38	0xbd34ef1a	-0.044173338
39	0x3c8542c4	0.016267188
40	0xbd783c58	-0.060604423
41	0xbd5f5d8c	-0.054532573
42	0xbd3c0b9c	-0.04590951
43	0x3d374bb0	0.044749916
44	0xbc965560	-0.018351257
45	0xbb660380	-0.00350973
46	0xbd439d48	-0.047757417
47	0xbcf1bf00	-0.029510021
48	0x3d094a3c	0.03351806
49	0xbc1479d8	-0.009062253
50	0x3c6b0868	0.014345266
51	0xbc617470	-0.013760671
52	0x3d40ebfc	0.047100052
53	0xbcb57258	-0.02214925
54	0xbcafa394	-0.021440305
55	0x3ceec4b8	0.029146537
56	0xbd796a68	-0.060892493
57	0xbc37a2d0	-0.011208251
58	0xbc9a93d8	-0.018869326
59	0xbcf3377c	-0.029689543
60	0x3d1bbf88	0.038024455
61	0xbd152460	-0.036411643
62	0xbd6b6bd4	-0.05747588
63	0xbd2a3974	-0.041558698
64	0x3ba8b760	0.005148813
65	0x3cac9958	0.021069214
66	0x3cf47118	0.029839084
67	0x3d325d4a	0.043546
68	0xbd695fe2	-0.056976207
69	0xbd4dc62e	-0.050237827
70	0xbca4d56c	-0.020121299
71	0xbd30d0be	-0.043167822
72	0xbcf66160	-0.030075729
73	0x3cd301c4	0.025757678
74	0xbd3645ba	-0.04450009
75	0xbc00e4c8	-0.007867046
76	0xbd37defa	-0.04489038
77	0xbd3f03ce	-0.046634488
78	0x3ce7f354	0.02831427
79	0xbc9178d0	-0.017757803
80	0xbd5a7bae	-0.053340606
81	0xbd358ff0	-0.044326723
82	0xbd0da4e0	-0.034581065
83	0xbc8660bc	-0.016403548
84	0xbcc81338	-0.024423227
85	0x3beb64b0	0.0071836337
86	0xbc351d58	-0.011054359
87	0xbd2a6254	-0.04159768
88	0x3cf97854	0.030452885
89	0xbd2e2b52	-0.042521782
90	0x3d196174	0.037446454
91	0xbb2255a0	-0.0024770275
92	0x3ca35b94	0.019941129
93	0xbd231c26	-0.039821766
94	0x3d015996	0.031579576
95	0xbcae2e6c	-0.02126237
96	0x3d4418d2	0.047875233
97	0xbaee1a00	-0.0018165708
98	0xba068100	-0.0005130917
99	0x3d5d43ac	0.054019615
100	0x3d14e772	0.036353536
101	0x3d29ea30	0.041483104
102	0x3d622448	0.05521038
103	0x3cc380b4	0.023865081
104	0x3d004316	0.031313978
105	0x3d39fb64	0.04540576
106	0x3d5f57fe	0.054527275
107	0x3d09ff62	0.033690818
108	0xbcdb1b18	-0.026746318
109	0x3d767004	0.06016542
110	0x3c7beca0	0.01537624
111	0x3bcc5460	0.006235644
112	0xbc562fe8	-0.013072945
113	0x3c4f6218	0.012657665
114	0xbd039730	-0.032126606
115	0x3c0610a0	0.008182675
116	0xbb0d21e0	-0.0021535084
117	0x3d1ea482	0.038731106
118	0x3c6bb620	0.014386684
119	0x3cabe12c	0.020981394
120	0x3cb500a0	0.022095025
121	0x3a95f980	0.0011442155
122	0x3cfafd2c	0.0306383
123	0xbd1cce70	-0.03828281
124	0x3c6401d8	0.013916455
125	0xbc778088	-0.015106328
126	0x3c556c98	0.013026379
127	0xbc45cde8	-0.012073018
128	0x3c06f100	0.00823617
129	0x3d35d4c0	0.044392347
130	0xbd0f937e	-0.03505277
131	0xbd3fb48a	-0.046803035
132	0xbd485c94	-0.048916414
133	0x3d3cc24a	0.046083726
134	0x3c8f41d8	0.017487451
135	0x3d47f104	0.048813835
136	0xbd2153d6	-0.039386593
137	0x3b8ff7e0	0.0043935627
138	0xbba69b50	-0.0050844327
139	0xbd7d307e	-0.061813824
140	0xbb8afc20	-0.0042414814
141	0xbcf2f3d8	-0.02965729
142	0xbd58c554	-0.05292256
143	0x3ba4a630	0.005024694
144	0xbc8ceaa0	-0.017201722
145	0x3cf77af4	0.030209996
146	0x39bede00	0.00036405027
147	0x3d7c7bf6	0.061641656
148	0xbc6163c8	-0.0137567
149	0xbd7ade12	-0.06124694
150	0x3d34befc	0.04412745
151	0x3cbb7804	0.022884376
152	0xbd0d6c22	-0.03452695
153	0x3c550078	0.0130006
154	0x3d383abc	0.04497789
155	0xbd6b69aa	-0.057473816
156	0x3cc229e0	0.023701608
157	0x3bc827b0	0.0061082467
158	0xbd4ef1aa	-0.050523438
159	0x3d240f00	0.040053368
160	0xbd5818c8	-0.05275801
161	0x3ce672f4	0.028130986
162	0xbd3288d0	-0.043587506
163	0xbb026020	-0.001989372
164	0x3d7fea38	0.062479228
165	0x3d2de57e	0.04245519
166	0xbd248002	-0.04016114
167	0xbd34c26c	-0.044130728
168	0x3d67f4a4	0.05662979
169	0xba932980	-0.0011227578
170	0xbb95cf30	-0.004571818
171	0xbd482220	-0.04886067
172	0x3d07c118	0.033143133
173	0xbb42b500	-0.0029709935
174	0x3c8e902c	0.01740273
175	0xbd0c33d4	-0.034229115
176	0xbc877bd4	-0.016538538
177	0xbca62b94	-0.020284452
178	0xbcb3a2b8	-0.021928176
179	0xbd5efd84	-0.05444099
180	0x3cb1a904	0.021687038
181	0xbd028f1c	-0.03187476
182	0xbd5a730e	-0.05333238
183	0xbd1fddba	-0.039029814
184	0x3d45a01c	0.048248395
185	0x3d3bb12a	0.045823254
186	0x3cba1fb8	0.022720203
187	0x3d707256	0.05870279
188	0xbaee1b40	-0.001816608
189	0x3d61551e	0.055012815
190	0x3cc7283c	0.024311177
191	0xbc2159d8	-0.009848081
192	0x3d131716	0.03591069
193	0x3c9f500c	0.019447349
194	0xbb8cdd10	-0.0042988136
195	0xbd02c28e	-0.031923823
196	0xbca321f8	-0.019913658
197	0x3d133c58	0.03594622
198	0xbd73f3f2	-0.059558816
199	0x3c2b0f08	0.010440595
200	0x3d4ba20c	0.049715087
201	0xbcddccf0	-0.02707526
202	0x3d772e08	0.060346633
203	0x3cc2a6e8	0.023761228
204	0xbd3857e4	-0.045005694
205	0x3c913c04	0.017728813
206	0xbba02fd0	-0.004888512
207	0x3cc4e220	0.024033606
208	0xbd3549ac	-0.044259712
209	0x3cec7e24	0.028868742
210	0xba7dcd00	-0.00096817315
211	0x3c7d7900	0.015470743
212	0xbd3ec06e	-0.046570234
213	0xbd3840fc	-0.04498385
214	0xbcd31380	-0.025766134
215	0xbb9736c0	-0.004614681
216	0x3d163a56	0.036676727
217	0xbcca519c	-0.024697118
218	0x3d4196ee	0.04726308
219	0xbd6c0fa2	-0.057632096
220	0x3d4f8540	0.050664186
221	0xbd5b3c3a	-0.053524233
222	0xbc90a79c	-0.017658047
223	0x3cc0f048	0.023552075
224	0xbb583220	-0.0032988861
225	0xbd6b2c32	-0.057415195
226	0x3d78c170	0.06073135
227	0x3d366532	0.0445301
228	0xbd45d052	-0.048294373
229	0xbbfc2cb0	-0.007695757
230	0xbce97474	-0.028497912
231	0x3d55e986	0.05222466
232	0x3cdcebc0	0.026967883
233	0xbd05ff7c	-0.032714352
234	0xbc7db450	-0.015484884
235	0xbc630270	-0.013855562
236	0xbc130f88	-0.008975871
237	0x3cdcbfd8	0.026946947
238	0x3b422300	0.0029622912
239	0xbd606830	-0.05478686
240	0xbd4d755e	-0.05016076
241	0x3d32c648	0.043646127
242	0x3d1cce82	0.03828288
243	0xbd4e2790	-0.0503307
244	0x3d5aa082	0.05337573
245	0x3ba6a520	0.0050856024
246	0x3c57c910	0.013170496
247	0xbc05c1b0	-0.0081638545
248	0xbd02bd0c	-0.03191857
249	0xbca10cfc	-0.019659512
250	0x3d1a0a66	0.037607573
251	0xbd199f50	-0.037505448
252	0x3bbe6ee0	0.005811557
253	0xbd34b870	-0.044121206
254	0xbbe4cbe0	-0.0069823116
255	0xbd1f19ce	-0.03884297

bias f4 [256]
0	0xbd27eb62	-0.040995963
1	0x3d6460bc	0.055756316
2	0xbcc72f6c	-0.024314605
3	0x3cb08cf0	0.02155158
4	0xbd683143	-0.056687605
5	0xbcbc9be0	-0.023023546
6	0x3cb9f1fb	0.022698393
7	0xbcfc81b8	-0.030823573
8	0x3d18b474	0.03728147
9	0xbcfd4efc	-0.030921452
10	0xbd1fdaf8	-0.039027184
11	0x3c6fde36	0.014640382
12	0xbd4f37fc	-0.0505905
13	0x3ba5af00	0.005056262
14	0x3d754e27	0.059888985
15	0xbd528416	-0.0513955
16	0x3cc81440	0.024423718
17	0x3b8c3983	0.004279317
18	0x3d22ce15	0.039747316
19	0x3d05386e	0.03252452
20	0x3d48bcce	0.049008183
21	0xbd147d52	-0.036252327
22	0xbc297915	-0.01034381
23	0x3d5f02df	0.054446097
24	0x3d73d19d	0.059526075
25	0x3c9f3443	0.0194341
26	0xbc518ae5	-0.012789463
27	0x3c8b2dfe	0.016989704
28	0x3ca66f9d	0.020316893
29	0xbc9ad378	-0.018899664
30	0x3d7e0854	0.06201966
31	0x3d76f036	0.060287677
32	0xbb977f02	-0.004623295
33	0x3c5389c9	0.0129112685
34	0xbbf9f627	-0.0076282206
35	0xbd0eb405	-0.03483965
36	0x3d7f92a0	0.062395692
37	0x3c05df41	0.008170904
38	0x3a97fe81	0.0011596234
39	0xbba92ca0	-0.0051627904
40	0x3d0e396c	0.03472273
41	0xbd4de535	-0.050267417
42	0xbbbeb419	-0.005819809
43	0xbb97ba61	-0.0046303724
44	0x3cb41dc8	0.021986857
45	0xbd5dc4b1	-0.054142658
46	0xbc32dbe7	-0.010916687
47	0xbb8def89	-0.0043315333
48	0x3d1f36c3	0.038870584
49	0xbd53b332	-0.051684566
50	0x3c4e2dda	0.012584174
51	0xbbe25030	-0.0069065318
52	0xbd3776ee	-0.044791155
53	0x3ca07f90	0.019592077
54	0x3d752fb5	0.05985995
55	0x3d38c140	0.045106173
56	0xbd10c687	-0.03534558
57	0xbd26c4bd	-0.040714968
58	0x3c77e3a8	0.015129961
59	0xbbf216aa	-0.0073879557
60	0xbd3593da	-0.044330455
61	0x3ba0c2f2	0.004906052
62	0xbd6ca56e	-0.057774954
63	0x3cbe750a	0.023249168
64	0xbcb59d88	-0.022169843
65	0x3bf2409e	0.007392957
66	0xbd362bea	-0.044475473
67	0xbb8c6701	-0.00428474
68	0xbd134eae	-0.035963707
69	0xbc1ccb1e	-0.009569911
70	0xbd322758	-0.043494552
71	0x3d5ae976	0.053445302
72	0xbc98a208	-0.01863195
73	0x3d70dc4a	0.058803834
74	0x3c70f199	0.014706039
75	0x3d49eb17	0.049296465
76	0xbd1f2dd0	-0.03886205
77	0xbd331cd4	-0.043728665
78	0xbd02f8f6	-0.03197571
79	0xbd767e5c	-0.0601791
80	0xbd2fc5a3	-0.04291309
81	0xbd228186	-0.039674304
82	0xbd32ddde	-0.04366862
83	0xbcea8791	-0.028629096
84	0xbcdd35e4	-0.027003236
85	0xbcb15296	-0.021645825
86	0x3b7c8648	0.0038532186
87	0xbc99e94c	-0.018788002
88	0xbd7dd900	-0.061974525
89	0xbd6439bc	-0.055719122
90	0xbad80f80	-0.0016484112
91	0x3d30413a	0.043030955
92	0x3c9d5e27	0.019209934
93	0x3cd6d176	0.026222926
94	0x3d30028d	0.042971183
95	0xbc2ef440	-0.010678351
96	0x3a2d41ed	0.000660925
97	0xbd668fc0	-0.056289434
98	0x3ca75344	0.020425446
99	0xbd49dc92	-0.049282618
100	0xbd5f4e6c	-0.05451815
101	0xbb76c9ee	-0.003765698
102	0xbd6c2c9b	-0.057659727
103	0x3d47f7e5	0.048820395
104	0x3cdc20b8	0.02687107
105	0x3c982fd2	0.01857749
106	0x3c2bc1f8	0.0104832575
107	0x3b30fcb4	0.0027006092
108	0xbc890644	-0.01672662
109	0x3c77af0b	0.015117417
110	0x3d7d4015	0.06182869
111	0x3bbe87c0	0.0058145225
112	0xbcce1f10	-0.025161296
113	0x3d26ea84	0.040750995
114	0xbd124bf0	-0.03571695
115	0xbb68b600	-0.003550887
116	0xbcb49b78	-0.02204679
117	0x3cef6cd8	0.029226705
118	0x3c7dd2a3	0.015492114
119	0xbcb5bad4	-0.022183813
120	0x3d586bfe	0.052837364
121	0xbcbbaca5	-0.022909472
122	0xbc9da04d	-0.019241476
123	0xbcdca4fe	-0.026934143
124	0xbd7b631a	-0.061373807
125	0xbd2cbab7	-0.042170253
126	0x3c184238	0.0092931315
127	0x3c796e27	0.015224016
128	0x3c97d818	0.018535659
129	0xbd63c20e	-0.055604987
130	0xbd4e4ed9	-0.050368164
131	0xbd50f1f4	-0.051011994
132	0x3afef534	0.0019451738
133	0x3cbdc378	0.023164496
134	0xbd259559	-0.040425632
135	0xbd4dc24a	-0.050234117
136	0xbd7eee9d	-0.062239278
137	0x3cec8a35	0.028874496
138	0x3d3132b9	0.043261264
139	0x3cac5377	0.021035893
140	0x3c3c559a	0.011495018
141	0x3c3da898	0.01157584
142	0x3afd9b40	0.0019348636
143	0xbd41a928	-0.04728046
144	0x3add9fc0	0.0016908571
145	0x3bd35375	0.006449158
146	0xbcc75fd1	-0.024337681
147	0x3c82506c	0.015907489
148	0x3cd823c0	0.026384234
149	0x3cfeafe0	0.031089723
150	0x3baa2819	0.0051927683
151	0xbd3884e4	-0.04504861
152	0x3c261138	0.010135941
153	0x3bd35e14	0.006450424
154	0xbd39c964	-0.045358077
155	0x3d4a3c80	0.049374104
156	0x3d2899d0	0.041162312
157	0x3c8d30e4	0.017235227
158	0xbb0a5880	-0.002110988
159	0xbbc60410	-0.0060429648
160	0x3ca45c74	0.020063616
161	0xbc609848	-0.013708182
162	0x3d13a274	0.0360436
163	0xbd0e1468	-0.03468743
164	0x39a64df0	0.00031720055
165	0x3cebf474	0.028803088
166	0xbd5d17fa	-0.053977944
167	0xbcac9c1b	-0.02107053
168	0xbd4df2a8	-0.050280243
169	0x3d68fe57	0.056883182
170	0xbd61f972	-0.05516953
171	0xbc9658b0	-0.018352836
172	0x3b9518f6	0.0045500947
173	0xbd573db6	-0.052549087
174	0xbce5f6ea	-0.02807184
175	0x3d546ccf	0.05186158
176	0x3bed1f30	0.007236384
177	0x3d65defa	0.05612085
178	0x3d4a4c42	0.04938913
179	0xbb1dd440	-0.002408281
180	0x3cfcb970	0.030850142
181	0xbb5bbfa4	-0.0033530975
182	0x3cd1d77c	0.025615446
183	0xbd653872	-0.055962034
184	0xbd14dc3a	-0.036342837
185	0xbc6577cc	-0.014005613
186	0x3cffca30	0.03122434
187	0x3c76e6ad	0.015069646
188	0xbd1c2c27	-0.038128044
189	0x3d5458cb	0.051842492
190	0xba3fe211	-0.00073197583
191	0x3d202a80	0.03910303
192	0x3d3623d0	0.044467747
193	0x3d2e8709	0.04260925
194	0x3d0f109c	0.03492795
195	0x3c99457c	0.01870989
196	0x3c84d694	0.0162156
197	0xbd5c23ca	-0.05374507
198	0xbd0aebcc	-0.03391628
199	0x3d74e65b	0.059789997
200	0x3d7ba74c	0.061438844
201	0x39480a00	0.00019077212
202	0x3c479f50	0.012183979
203	0x39e0fe57	0.00042914107
204	0x3ccfbd2e	0.025358763
205	0x3d682182	0.05667258
206	0x3ca7f240	0.020501256
207	0xbd51b755	-0.05120023
208	0x3be5e298	0.0070155375
209	0xbd637bc9	-0.055537973
210	0x3d5f4102	0.054505356
211	0x3d354621	0.044256333
212	0x37f73039	2.946715e-05
213	0x3d45a984	0.048257366
214	0x3d291322	0.041278012
215	0xbd7c18af	-0.061546978
216	0x3c34f685	0.011045103
217	0xbc2ef6cb	-0.010678957
218	0x3ca8693e	0.020557996
219	0x3d6c081f	0.057624932
220	0x3c5d4020	0.013504058
221	0x3baaa0b7	0.005207147
222	0xbc24e558	-0.010064445
223	0x3b238b60	0.00249549
224	0xbcd1637c	-0.025560133
225	0x3cd408db	0.025883129
226	0xbd299fde	-0.041412227
227	0x3c6174c0	0.0137607455
228	0x3d665a66	0.056238554
229	0x3d076bdc	0.033061847
230	0x3c62be1c	0.013839271
231	0xbd4f41af	-0.05059975
232	0x3d74c6aa	0.059759773
233	0xbbf3b410	-0.0074372366
234	0xbd1ae806	-0.03781893
235	0x3a4ee620	0.00078925677
236	0xbd47dd5c	-0.04879509
237	0x3ab8ea00	0.0014107823
238	0x3cf71271	0.03016016
239	0xbd6bdde0	-0.057584643
240	0x3d08ca24	0.0333959
241	0xbc873604	-0.016505249
242	0x3c6d86e0	0.014497489
243	0x3cbfbba5	0.023404906
244	0xbb888cd0	-0.004167177
245	0x3d240bbf	0.040050264
246	0xbcdee8c1	-0.027210595
247	0x3d7e92cf	0.062151726
248	0x3d13cb0e	0.03608232
249	0x3d29b740	0.041434526
250	0x3d66cfcf	0.056350525
251	0x3c5fa3d6	0.013649901
252	0xbc96cf60	-0.018409431
253	0xbbaea673	-0.005329901
254	0x3d51f639	0.051260207
255	0xbc2fd780	-0.010732532

weight f4 [256, 256]
0	0x3b8d55e0	0.0043132156
1	0xbd2f7a02	-0.042840965
2	0x3ccb2834	0.024799444
3	0x3a6ce080	0.00090361387
4	0xbc6dcb08	-0.014513738
5	0x3d313802	0.043266304
6	0xbd2d9ae2	-0.042384036
7	0xbc0013a0	-0.007817179
8	0x399ec400	0.0003028214
9	0x3ce11fe8	0.027481034
10	0xbd02ff16	-0.03198155
11	0x3d6f7c3c	0.05846809
12	0x3d356e52	0.044294663
13	0x3d3891dc	0.045060977
14	0x3d36619a	0.044526674
15	0xbd0d88c4	-0.034554258
16	0xbd300f06	-0.042983077
17	0x3bf89630	0.007586263
18	0x3d1303e8	0.035892397
19	0xbd16da00	-0.036828995
20	0x3c9928e4	0.018696256
21	0x3bfa8b10	0.007645972
22	0xbd43f2d6	-0.04783901
23	0xbd488924	-0.048958912
24	0xbc1c6188	-0.009544738
25	0xbce9bb44	-0.028531678
26	0xbcb89404	-0.022531517
27	0x3d03f8d6	0.03221973
28	0x3beda450	0.0072522536
29	0xbc67db80	-0.014151454
30	0xbd584610	-0.05280119
31	0x3d7a7a90	0.06115204
32	0x3d35b0f2	0.0443582
33	0x3cead6dc	0.028666906
34	0xbd7eabb2	-0.06217546
35	0x3d42cd00	0.047558784
36	0xbcc46838	-0.023975477
37	0xbd583656	-0.052786194
38	0x3cf33bf8	0.029691681
39	0x3d111628	0.03542152
40	0xbd0d78c4	-0.034539
41	0xbcd26994	-0.02568511
42	0xbd5ce6fa	-0.053931214
43	0xbd62bc7c	-0.055355534
44	0x3c625718	0.01381471
45	0xbc0ab220	-0.00846532
46	0xbd61a132	-0.05508537
47	0xbd4ea428	-0.05044952
48	0x3d590de8	0.052991778
49	0x3d67d076	0.05659529
50	0xbd5cf852	-0.053947754
51	0x3bdc1550	0.006716408
52	0xbcc51950	-0.024059922
53	0x3d2be5ca	0.04196719
54	0x3d45c4e0	0.048283458
55	0x3d641ec8	0.055693418
56	0xbc641cc0	-0.01392287
57	0xbd580c48	-0.052746087
58	0x3d7b9dd6	0.06142982
59	0x3c809bd8	0.015699312
60	0x3aea3340	0.0017868057
61	0x3d5560be	0.052094214
62	0xbd6f4bdc	-0.058421955
63	0x3d2b393c	0.04180263
64	0x3c4f1f78	0.01264178
65	0xbb30ca60	-0.0026976094
66	0xbaf11540	-0.0018393174
67	0x3d5c9a6c	0.053858206
68	0x3d3f0430	0.046634853
69	0x3d1f8838	0.038948268
70	0xbcde636c	-0.027147017
71	0xbc8dc070	-0.017303675
72	0x3cab1f58	0.02088897
73	0xbcf0cc08	-0.029394165
74	0xbb99dcf0	-0.0046955273
75	0xbd7c5478	-0.061603993
76	0x3d5478f4	0.051873162
77	0xbd52cac4	-0.051462904
78	0xbd75c90e	-0.060006194
79	0x3d2bf9f8	0.041986436
80	0xbd3f22c8	-0.04666403
81	0x3c112c18	0.00886061
82	0x3cdccca0	0.026953042
83	0xbcaba2d8	-0.020951673
84	0xbbd442b0	-0.0064776763
85	0xbb4cfb80	-0.0031277835
86	0xbc1ab438	-0.009442382
87	0xbd43ccce	-0.04780274
88	0x3c7cb930	0.0154250115
89	0x3cf422a0	0.029801667
90	0x3c12c9e8	0.008959271
91	0x3d13acc0	0.03605342
92	0xbd0632f8	-0.03276345
93	0xbc830450	-0.015993267
94	0xbd336b36	-0.043803416
95	0x3cbc992c	0.023022257
96	0x3cb5743c	0.022150151
97	0xbd042c00	-0.032268524
98	0x3d1b9de4	0.037992373
99	0xbb9a55c0	-0.004709929
100	0x3ce6ad20	0.028158724
101	0x3cc3ba14	0.02389244
102	0xbcf77504	-0.030207165
103	0x3c84e0ec	0.016220532
104	0x3d019dbe	0.031644575
105	0xbd73d35e	-0.059527747
106	0xbd4feb6a	-0.050761618
107	0x3cdbc078	0.026825175
108	0xbc0b8d08	-0.008517511
109	0xbd36c350	-0.04461986
110	0x3d113848	0.035454065
111	0xbab43a40	-0.001375027
112	0x3c5ceb18	0.013483785
113	0x3d5d6a44	0.05405642
114	0xbd135452	-0.035969086
115	0xbc45b6e8	-0.012067534
116	0x3bb3c880	0.005486548
117	0x3d40ce02	0.047071464
118	0x3c442108	0.011970766
119	0xbcfb30f4	-0.030662991
120	0x3d4c8d02	0.049939163
121	0xbcc953f8	-0.024576172
122	0xbca66c84	-0.020315416
123	0x3cce539c	0.025186352
124	0x3cbc04b0	0.022951454
125	0xbc896178	-0.01677011
126	0x3cf04310	0.029328853
127	0xbcb039c4	-0.02151192
128	0x3b138c40	0.0022514015
129	0x3c300c70	0.010745153
130	0x3c04fea0	0.008117348
131	0x3ccc0974	0.024906851
132	0xbbbf2660	-0.005833432
133	0x3d7f5a08	0.06234172
134	0xbd0c1898	-0.034203142
135	0xbce0a628	-0.02742298
136	0x3be788c0	0.0070658624
137	0x3d0448f8	0.03229615
138	0x3c963598	0.018336102
139	0xbd2655f4	-0.040609315
140	0xbd291e46	-0.041288637
141	0xbcd012e0	-0.025399625
142	0xbd210cf0	-0.03931898
143	0x3d4ea096	0.050446115
144	0xbc0c5ff0	-0.008567795
145	0x3b73ab60	0.0037181005
146	0xbd5fc20e	-0.054628424
147	0xbcf10d00	-0.029425144
148	0xbd781256	-0.06056436
149	0x3d7d404e	0.061828904
150	0x3d3381d4	0.043824986
151	0x3cf38840	0.029728055
152	0xbc87bb3c	-0.016568772
153	0x3d5c8df0	0.0538463
154	0xbd2a7fd0	-0.041625798
155	0x3d7c00c6	0.061524175
156	0x3d2468d2	0.040139027
157	0xbd0003dc	-0.03125368
158	0xbce76e94	-0.02825097
159	0x3d6f2c88	0.058392078
160	0x3ba93620	0.005163923
161	0x3d523f12	0.05132968
162	0x3c0f43d8	0.008744203
163	0x3d2d8a1e	0.042368047
164	0xbd006592	-0.031346865
165	0xbd3f9b98	-0.046779245
166	0xbd3bf55a	-0.045888282
167	0x3d0de9f0	0.03464693
168	0xbd28c556	-0.04120382
169	0x3bc5d260	0.0060370415
170	0xbd75e4f8	-0.060032815
171	0x3d558892	0.052132197
172	0xbd6e49f4	-0.058175996
173	0x3b9c6ef0	0.004773967
174	0x3d45212c	0.04812734
175	0xbc678de8	-0.014132954
176	0x3d530a50	0.051523507
177	0xbc90aefc	-0.017661564
178	0x3c98b940	0.018643022
179	0xbb9b0200	-0.004730463
180	0xbbd2d450	-0.006434001
181	0xbcdd6440	-0.027025342
182	0x3c80d5bc	0.015726916
183	0x3c01d500	0.007924318
184	0xbd10698e	-0.035256915
185	0x3d0fe9f6	0.035135232
186	0xbcbffb6c	-0.023435317
187	0x3d032220	0.032014966
188	0x3c4e7578	0.012601249
189	0x3d0a7506	0.03380301
190	0xbcee23e8	-0.029069856
191	0x3d622f06	0.055220626
192	0xbcdd0518	-0.026979968
193	0xbd0c08aa	-0.03418795
194	0xbbf5f1f0	-0.007505648
195	0xbd49e412	-0.04928977
196	0x3d784c28	0.060619503
197	0xbc8f37ec	-0.01748272
198	0xbba06d10	-0.0048958138
199	0xbd1a203a	-0.03762839
200	0xbc2fee10	-0.010737911
201	0x3d428d08	0.04749778
202	0x3d3cd69c	0.046103105
203	0x3c660290	0.014038697
204	0x3d395d62	0.045255072
205	0xbd1abd3c	-0.037778124
206	0x3ca4f648	0.020136967
207	0x3d233d16	0.039853178
208	0x3c64ad70	0.013957366
209	0xbc382d90	-0.011241332
210	0x3d42d446	0.04756572
211	0xbd490e68	-0.049086004
212	0xbcd54700	-0.026034832
213	0xbd3a6fee	-0.0455169
214	0x3d70ae42	0.058759935
215	0x3d19e57e	0.037572376
216	0xbd0d36f6	-0.034476243
217	0xbb0d7960	-0.0021587238
218	0x3d45af1e	0.048262708
219	0xbd477acc	-0.048701093
220	0xbd697862	-0.05699957
221	0xbd22d648	-0.039755136
222	0x3d671bf8	0.056423157
223	0x3bab20c0	0.00522241
224	0x3d21bafe	0.03948497
225	0x3c966ca8	0.018362358
226	0x3cdbb588	0.02681996
227	0xbb760940	-0.0037542135
228	0x3d4124e2	0.047154315
229	0x3ca65d68	0.020308211
230	0xbca115d4	-0.019663729
231	0x3d7c0f26	0.061537884
232	0x3d4f3692	0.05058915
233	0x3d44806a	0.047974028
234	0xbd45fd48	-0.04833725
235	0x3d6cd2bc	0.05781816
236	0xbd028e8c	-0.031874225
237	0xbd7fec72	-0.06248135
238	0xbcbab7a4	-0.022792645
239	0x3d70ffcc	0.058837697
240	0xbc55df28	-0.013053693
241	0xbd47b86a	-0.048759855
242	0x3cbecd64	0.023291297
243	0xbb97b460	-0.0046296567
244	0xbd278f6a	-0.040908255
245	0xbc9de918	-0.019276187
246	0xbbd56120	-0.0065118223
247	0x3d708d60	0.058728576
248	0xbc3de0d0	-0.011589244
249	0xbd747e18	-0.059690565
250	0xbd4dcc0c	-0.050243422
251	0xbd452326	-0.048129223
252	0x3c595d20	0.013266832
253	0x3cca2430	0.024675459
254	0xbd59fc8c	-0.053219363
255	0xbd1df59c	-0.03856431

bias f4 [256]
0	0xbbb68460	-0.0055699795
1	0x3a55818d	0.000814461
2	0xbcac8b16	-0.021062415
3	0xbc8fa9f8	-0.017537102
4	0xbd09999a	-0.03359375
5	0xbd348dc9	-0.04408053
6	0xbcf8b224	-0.030358382
7	0xbd43e228	-0.0478231
8	0x3d26322e	0.0405752
9	0xbb056bc4	-0.0020358423
10	0x3a177880	0.0005778149
11	0x3c90b4ef	0.0176644
12	0xbd245436	-0.040119372
13	0xbba6a1e0	-0.005085215
14	0x3d1dd914	0.0385371
15	0x3d2511a9	0.040300045
16	0xbc64068c	-0.0139175765
17	0x3ce4d09b	0.027931502
18	0xbcecdfa8	-0.028915241
19	0x3d64a66f	0.055822786
20	0xbd5efde0	-0.054441333
21	0x3d42b41e	0.047535054
22	0xbcd8e2df	-0.026475368
23	0xbd658d4c	-0.056042954
24	0xbc56a6b0	-0.013101265
25	0xbca56f14	-0.020194568
26	0x3d6841e2	0.056703456
27	0x3cf2ba81	0.029629948
28	0xbd78bfa0	-0.060729623
29	0x3caed630	0.021342367
30	0x3c85eca6	0.016348194
31	0xbd7ae778	-0.061255902
32	0x3d7bda8b	0.061487716
33	0xbd235090	-0.039871752
34	0x3d322115	0.04348858
35	0x3d6203d7	0.055179443
36	0x3b6effe6	0.0036468445
37	0x3a200e2a	0.0006105626
38	0xbc0b6670	-0.00850831
39	0xbc1ae7a8	-0.009454645
40	0xbcd8f594	-0.026484288
41	0x3d16c77e	0.036811344
42	0xbc9693cf	-0.018381028
43	0xbb924bf5	-0.004464621
44	0xbd461fe1	-0.048370246
45	0xbc88c1ca	-0.016693968
46	0x3d18efb3	0.03733797
47	0xbcd50edc	-0.026008062
48	0x3ba51068	0.005037356
49	0x3bcd2456	0.006260435
50	0xbb1bd120	-0.0023775771
51	0x3d4361e7	0.04770079
52	0x3b8da7e0	0.004322991
53	0xbd2824c0	-0.041050673
54	0xbd48a142	-0.048981912
55	0x3d754859	0.05988345
56	0xbc8aa5bc	-0.016924731
57	0x3c48e8e0	0.012262553
58	0x3cf10ebf	0.029425977
59	0xbd09d2c0	-0.033648252
60	0x3b83c33a	0.0040210756
61	0xbd06129a	-0.032732584
62	0xbc15a9de	-0.009134738
63	0x3d4ba584	0.049718395
64	0xbd49064e	-0.04907828
65	0x3d4454aa	0.047932304
66	0x3d19d75e	0.037558906
67	0x3d74f74b	0.05980615
68	0xbd330c68	-0.043713003
69	0xbd54e00c	-0.05197148
70	0xbbf7ab30	-0.007558249
71	0xbb36a7c0	-0.0027870983
72	0x3ca0c973	0.019627308
73	0xbd494b2e	-0.049143963
74	0x3bbacf4d	0.0057009817
75	0xbd286e02	-0.041120537
76	0x3c6f4fb8	0.014606409
77	0xbd2ea131	-0.042634193
78	0x3d3079c4	0.043084875
79	0xbd02f5d1	-0.03197271
80	0x3d151b62	0.036403067
81	0xbc9e1954	-0.019299187
82	0xbc8541a2	-0.016266648
83	0x3d189872	0.03725476
84	0x3c00e457	0.00786694
85	0xbd5c8510	-0.053837836
86	0xbd64c7ba	-0.055854537
87	0x3cfdcafa	0.030980576
88	0x3d0080dd	0.031372894
89	0xbcef31c7	-0.02919854
90	0xbcb67ea3	-0.022277182
91	0xbd0e3430	-0.03471774
92	0xbd6ae97e	-0.05735158
93	0x3c426184	0.01186407
94	0xbd69af8b	-0.057052176
95	0x3cc36c3f	0.023855327
96	0xbcd39aed	-0.02583071
97	0x3d155e9b	0.036467176
98	0x3cf80f2d	0.030280674
99	0xbd7413ef	-0.059589323
100	0x3d23f36e	0.040027075
101	0xbd085244	-0.03328158
102	0xbc2c7a6d	-0.010527235
103	0xbcefecfb	-0.029287806
104	0x3d37ae20	0.044843793
105	0xbd6a4928	-0.057198673
106	0x3cbab9c8	0.022793666
107	0xbbbda821	-0.005787865
108	0x3cb46d5f	0.022024808
109	0xbcb5a8ae	-0.02217516
110	0x3d24f4e9	0.040272627
111	0x3cdf6bf9	0.027273165
112	0x3d05bbc5	0.032649774
113	0x3c79ee48	0.015254565
114	0x3cfaaf74	0.03060124
115	0xbcb708d8	-0.022343084
116	0xbd5507a8	-0.052009255
117	0xbc20a2a0	-0.009804398
118	0x3ba43787	0.005011502
119	0x3d7233ba	0.05913136
120	0x3d371b41	0.044703726
121	0x3c93b244	0.01802934
122	0xbbd91c31	-0.006625675
123	0xbcd623cb	-0.026140114
124	0x3d030267	0.031984713
125	0x3ceceeba	0.028922427
126	0x3d6a51a5	0.05720677
127	0xbb2537c0	-0.0025210232
128	0xbc87fe28	-0.016600683
129	0xbc8f207a	-0.01747154
130	0xbd5d2e62	-0.053999312
131	0x3d760dd6	0.06007179
132	0xbd45528f	-0.048174437
133	0x3bdba0b0	0.006702505
134	0x3ce67450	0.028131634
135	0x3caf620b	0.021409055
136	0x3cd7b783	0.026332622
137	0x3d255115	0.04036053
138	0x3c9aff58	0.018920586
139	0xbc008d68	-0.007846214
140	0xbd6aa832	-0.05728931
141	0x3baca300	0.0052684546
142	0xbd2cda92	-0.042200632
143	0xbd3a4f06	-0.04548552
144	0xbd5b443a	-0.053531863
145	0x3d26004c	0.040527627
146	0xbb7f0ba0	-0.003891684
147	0xbc505fe2	-0.012718173
148	0xbc77cee0	-0.015125006
149	0x3cd724f3	0.026262736
150	0xbc2783ef	-0.0102243265
151	0x3d7c9ea4	0.06167473
152	0x3d1a092f	0.037606414
153	0x3d36a03e	0.044586413
154	0x39f4411e	0.00046587823
155	0x3cea0e97	0.02857141
156	0xbbfbcc34	-0.007684255
157	0xbc378dd3	-0.011203247
158	0x3bc3febe	0.0059812954
159	0xbd21852f	-0.039433654
160	0xbd687ae4	-0.056757823
161	0x3c0bb06a	0.008525947
162	0x3b82ed87	0.0039956006
163	0x3d235f81	0.039886
164	0x3d4d15e6	0.050069712
165	0xbc5c71ff	-0.013454913
166	0xbcecb994	-0.028897084
167	0x3b8a7ea2	0.0042265216
168	0x3d3389a6	0.043832444
169	0x3d43946e	0.047748975
170	0x3d1546e4	0.03644456
171	0x3d61608c	0.055023715
172	0x3ca1f6f0	0.01977107
173	0x3c5203f2	0.012818323
174	0x3c76a2ee	0.015053494
175	0x3d2a0bd8	0.0415152
176	0xbcb127f8	-0.021625504
177	0x3d144c13	0.036205363
178	0x3c63075b	0.013856734
179	0xbd59fdc4	-0.053220525
180	0xbcdf3718	-0.02724795
181	0x3d2b646a	0.04184381
182	0xbc844061	-0.01614398
183	0xbd2d934b	-0.042376798
184	0x3ce15d27	0.027510239
185	0x3d5845d4	0.05280097
186	0x3d189178	0.037248105
187	0x3d7f25ea	0.062292017
188	0x3d40481d	0.046943773
189	0xbd13a820	-0.03604901
190	0xbd2233fa	-0.03960035
191	0xbd3ec47e	-0.04657411
192	0x3d10f61d	0.035390962
193	0xbd0335a2	-0.03203357
194	0xbd1e7912	-0.03868968
195	0xbc396ae7	-0.011316991
196	0xbcdd2048	-0.026992932
197	0xbd56c169	-0.052430544
198	0x3b9a0dd9	0.004701358
199	0xbb56a7e9	-0.003275389
200	0xbd105f80	-0.035247326
201	0x3c24894b	0.010042499
202	0x3d1bfbc4	0.0380819
203	0xbd6f3a50	-0.05840522
204	0xbd67bff6	-0.056579553
205	0xbd757a04	-0.059930816
206	0x3bbd4ce3	0.005776988
207	0x3d11867e	0.035528652
208	0xbd5aa1b0	-0.053376853
209	0x3d7cac77	0.061687913
210	0xbc73bbe3	-0.014876339
211	0x3d5f4202	0.05450631
212	0x3c9a9052	0.018867645
213	0xbd47b9ab	-0.04876105
214	0x3cec5e6f	0.028853623
215	0x3b096880	0.0020966828
216	0xbd70bbca	-0.05877284
217	0xbd7f797e	-0.062371723
218	0x3d0f4554	0.034978226
219	0x3c9d9e03	0.019240385
220	0x3d65ca8c	0.056101367
221	0xbc3fd95b	-0.011709536
222	0xbd71965a	-0.058981277
223	0x3d74008b	0.05957083
224	0xbcf8d318	-0.030374095
225	0xbd7258ee	-0.05916684
226	0x3c133f48	0.008987255
227	0xbd6a1638	-0.057150096
228	0x3d1f156c	0.03883879
229	0x3d347358	0.044055313
230	0xbcbe334c	-0.02321782
231	0xbcf84328	-0.03030546
232	0xbd28cb6e	-0.04120963
233	0x3ccba5ec	0.024859391
234	0xbcd7c038	-0.026336774
235	0x3b56d221	0.0032779055
236	0xbba40e40	-0.0050065815
237	0xbc8c4cf8	-0.017126545
238	0x3bc1f660	0.0059192628
239	0xbd7d0946	-0.061776422
240	0x3cce8f5c	0.025214843
241	0xbcb38e64	-0.021918483
242	0x3d6df81c	0.058097944
243	0xbd2d560c	-0.04231839
244	0xbd7d022d	-0.061769653
245	0xbc4bcb89	-0.012438663
246	0x3c894898	0.016758248
247	0x3d114d7a	0.035474278
248	0xbc85f3f5	-0.01635168
249	0x3d22844c	0.03967695
250	0x3c187c58	0.00930699
251	0x3cebfef2	0.02880809
252	0xbce084d4	-0.027407087
253	0x3ca7c784	0.020480879
254	0xbcce1f88	-0.02516152
255	0x3c2108bb	0.009828742

weight f4 [256, 256]
0	0xbd75ade4	-0.05998029
1	0x3cbdaa94	0.023152627
2	0x3cea57ca	0.028606314
3	0xbc294a50	-0.010332659
4	0x3d0200f4	0.03173919
5	0x3cd5b5ef	0.02608773
6	0x3d4300b1	0.04760808
7	0x3d5c391c	0.0537654
8	0xbcacb638	-0.021082982
9	0x3d6c379f	0.057670232
10	0x3cc07ba8	0.023496464
11	0xbc84b7b1	-0.016200872
12	0xbd4a678e	-0.049415164
13	0xbb70b4a0	-0.0036728755
14	0x3d1f9c4f	0.038967427
15	0xbc3078f2	-0.010771023
16	0xbcc40940	-0.023930192
17	0xbd1c3db4	-0.038144782
18	0x3a9afe40	0.001182504
19	0xbd5a3756	-0.05327543
20	0xbc92f6a8	-0.01793988
21	0x3bf99283	0.0076163425
22	0x3cd331dc	0.02578061
23	0xbd1400ee	-0.0361337
24	0x3caa6984	0.020802267
25	0x3d63aa30	0.055582225
26	0x3d161d22	0.036648877
27	0x3d02c0bb	0.031922083
28	0x3d2cc118	0.042176336
29	0xbd3526b6	-0.04422637
30	0xbd0ba95b	-0.034097057
31	0x3c9e80f3	0.019348597
32	0x3d49ee92	0.049299784
33	0x3bdaa210	0.0066721514
34	0x3d31a668	0.043371588
35	0x3d34da46	0.044153474
36	0xbbd3d251	-0.0064642807
37	0x3d2fdfa2	0.042937882
38	0xbcc71080	-0.02429986
39	0xbcde09bc	-0.027104251
40	0xbcef5318	-0.029214427
41	0x3bf28186	0.0074006943
42	0x3d2497f8	0.04018399
43	0xbc51f82f	-0.012815519
44	0x3d687323	0.056750428
45	0xbba5c4af	-0.005058847
46	0x3d248330	0.040164173
47	0xbc95b2d8	-0.018273756
48	0xbd5eff8d	-0.05444293
49	0x39e9340e	0.00044480007
50	0xbd05a04e	-0.03262358
51	0x3d4c8cd4	0.04993899
52	0xbd13ff98	-0.036132425
53	0xbc1cfa36	-0.009581139
54	0x3cb4b710	0.022059947
55	0x3c274a40	0.010210574
56	0x3cc37b84	0.023862608
57	0x3d42e633	0.047582816
58	0x3bc1069f	0.005890682
59	0x3ba7ede0	0.0051247925
60	0xbd5cfd9d	-0.053952802
61	0xbd6be961	-0.057595614
62	0x3cf4f7dc	0.029903345
63	0xbca08adc	-0.019597463
64	0x3d5444da	0.051823474
65	0xbc2ce487	-0.010552532
66	0xbd5349ee	-0.051584177
67	0xbd6202f8	-0.055178612
68	0xbd6ba800	-0.057533264
69	0x3ce2df3c	0.027694337
70	0xbd56da40	-0.052454233
71	0xbb9e4400	-0.0048298836
72	0xbd4fe687	-0.050756957
73	0x3ba09390	0.0049004033
74	0xbd74b87d	-0.059746254
75	0xbd2db840	-0.042412043
76	0xbd063b98	-0.032771677
77	0x3c44f65c	0.012021627
78	0x3d230ece	0.03980904
79	0xb84b4676	-4.8464593e-05
80	0x3c497561	0.012296052
81	0xbd399bcf	-0.045314606
82	0x3ca5d8fe	0.020245072
83	0xbce3b071	-0.027794095
84	0xbcf2c62f	-0.029635517
85	0xbccf5400	-0.025308609
86	0xbb758780	-0.0037464797
87	0xbd02eb71	-0.031962816
88	0xbd545fd4	-0.0518492
89	0x3d2bd7c3	0.041953813
90	0x3d58a3a3	0.05289043
91	0x3cbb802c	0.022888266
92	0xbd6698ce	-0.05629807
93	0x3cafd6d2	0.021464739
94	0x3d7ba1af	0.06143349
95	0x3c980e66	0.018561553
96	0xbcadc90d	-0.021214033
97	0x3cee2766	0.029071521
98	0xbc8ef9f0	-0.017453164
99	0x3cfb6afe	0.030690666
100	0xbc93510a	-0.017982978
101	0xbd5d0c5c	-0.053966865
102	0x3ca287ad	0.019840086
103	0xbcf3b612	-0.029749904
104	0xbd19d91f	-0.03756058
105	0x3d5c3764	0.053763762
106	0x3d72b2b8	0.05925247
107	0xbd0371e0	-0.03209102
108	0x3cd321e0	0.025772989
109	0xbd7db1f6	-0.061937295
110	0x3d68bc5e	0.056820266
111	0xbc4d974f	-0.012548282
112	0x37c091e6	2.2956123e-05
113	0x3cd86d00	0.026419163
114	0x3d28c597	0.04120406
115	0x3cf21db8	0.029555187
116	0xbd0616b0	-0.03273648
117	0x3d19c012	0.03753669
118	0xbcd99773	-0.026561474
119	0x3d77bb14	0.060481146
120	0xbd7b3176	-0.061326467
121	0x3cdc634c	0.026902817
122	0x3d19972c	0.037497684
123	0x3c8cef06	0.017203819
124	0xbca211f1	-0.019783946
125	0x3d54bb2d	0.051936317
126	0xbca39d34	-0.019972421
127	0x3b5aa5c0	0.0033362955
128	0xbc1c3da8	-0.009536184
129	0x3d128cc9	0.035778794
130	0xbc146648	-0.009057589
131	0xbd54bdcd	-0.05193882
132	0x3d7f7f7c	0.062377438
133	0xbc1ad2e0	-0.009449691
134	0x3d6240ba	0.05523751
135	0x3ad634d8	0.0016342653
136	0x3d3ac882	0.045601375
137	0x3cba8642	0.022769097
138	0x3c1ca002	0.009559633
139	0x3d5d25f0	0.05399126
140	0x3d1bb1f6	0.038011514
141	0xba979600	-0.0011565089
142	0x3d2cb70c	0.042166755
143	0xbb80ec30	-0.0039344057
144	0xbd628f62	-0.05531252
145	0x3d690d2c	0.056897327
146	0xbc4ffaf0	-0.0126941055
147	0xbd7e373f	-0.062064406
148	0x3d0e7a0a	0.034784354
149	0xbcafaf4c	-0.021445893
150	0x3d58541d	0.05281459
151	0xbd1524fd	-0.036412228
152	0xbd51f987	-0.05126336
153	0xbcc86c08	-0.024465576
154	0x3c557cc8	0.013030238
155	0x3c293bf0	0.010329232
156	0x3ce20ad2	0.02759305
157	0xbcb40647	-0.02197565
158	0xbcd0b971	-0.02547905
159	0xbd6d2ed5	-0.05790599
160	0xbcc81bb4	-0.024427272
161	0x3d3d4d84	0.046216503
162	0x3d474da2	0.04865802
163	0xbd1bad64	-0.038007155
164	0x3ab54840	0.0013830736
165	0x3c3688d8	0.0111410245
166	0x3d6328fa	0.055459
167	0xbbb43c4a	-0.005500351
168	0x3d2a6a39	0.041605208
169	0x3d0731e2	0.033006556
170	0xbc142623	-0.009042296
171	0xbc800e02	-0.01563168
172	0xbd25b03e	-0.04045128
173	0x3d7b656d	0.061376024
174	0xbd0c6bba	-0.034282424
175	0xbc8e11dc	-0.0173425
176	0x3d64ca06	0.055856727
177	0xbc3e23e2	-0.011605235
178	0xbcb471aa	-0.022026855
179	0x3d1b20f8	0.03787324
180	0xbc94d2e4	-0.018166967
181	0x3d35c8a3	0.044380795
182	0xbd068054	-0.032837227
183	0x3d5221b0	0.05130166
184	0xbc7706ba	-0.015077287
185	0xbcd51c5e	-0.026014503
186	0xbd72b945	-0.059258718
187	0xbc7dcc8a	-0.01549066
188	0x3cf7389b	0.030178359
189	0x3c50c5b0	0.012742445
190	0xbcc3409c	-0.02383452
191	0xbd6bb84c	-0.057548806
192	0xbd018de1	-0.031629447
193	0xbc350b48	-0.011050053
194	0x39bb8900	0.00035769492
195	0x3d001d9f	0.03127825
196	0x39a37a00	0.0003118068
197	0x3d79ccd8	0.06098637
198	0xbd309873	-0.043114137
199	0xbd4f09a9	-0.050546322
200	0x3c5203bb	0.012818272
201	0x3d5bc0e7	0.053650763
202	0xbcf713b2	-0.030160759
203	0xbb120380	-0.0022279918
204	0x3d1664b0	0.036717117
205	0x3d30ae7e	0.04313516
206	0xbcda4d7c	-0.026648276
207	0x3d394bcc	0.0452383
208	0xbbd6fad0	-0.006560661
209	0x3d6e3fc6	0.058166288
210	0x3d3c042a	0.04590241
211	0x3c68bd76	0.014205327
212	0x3cc24923	0.023716515
213	0xbd132311	-0.035922114
214	0xbc29b558	-0.010358177
215	0xbc63e4d0	-0.013909534
216	0xbd0b3c46	-0.033993028
217	0x3c197a40	0.009367526
218	0x3d72aabd	0.05924486
219	0x3c8def7c	0.01732611
220	0xbd3b9753	-0.04579861
221	0xbd209f0f	-0.03921419
222	0x3d162e90	0.0366655
223	0xbd27761b	-0.04088412
224	0xbc866654	-0.016406216
225	0xbc318d28	-0.010836877
226	0xbb9dc7b0	-0.0048150644
227	0x3d293de6	0.041318797
228	0x3c6d2f40	0.014476597
229	0xbc3348f0	-0.010942683
230	0x3c3dcafe	0.011584042
231	0xbb2ce1c0	-0.0026379675
232	0x3ce0f610	0.027461082
233	0xbb97521b	-0.004617942
234	0xbd2fba0e	-0.042902045
235	0x3cb3bea5	0.021941492
236	0x3ce51fa0	0.027969182
237	0xbc6e9830	-0.0145626515
238	0x3cb20630	0.021731466
239	0x3d3ef4f2	0.046620317
240	0xbc820430	-0.015871137
241	0x3cc406ac	0.023928963
242	0x3d175cec	0.03695385
243	0x3c5bf528	0.013425149
244	0xbd577884	-0.052605167
245	0x3befd272	0.007318788
246	0xbd70ec2e	-0.05881899
247	0xbc93a6d3	-0.018023884
248	0x3c93ccb4	0.018041946
249	0xbc81c088	-0.015838876
250	0x3d710c80	0.05884981
251	0xbbe1c553	-0.006889978
252	0xbb4ccb00	-0.0031248927
253	0x3d2a5428	0.041584164
254	0xbc17ebe4	-0.009272549
255	0x3b9d1bde	0.004794582
